…
        min_scale: 0.3
        max_scale: 1
        min_aspect_ratio: 0.5
        max_aspect_ratio: 2
      }
      sample_constraint {
        min_jaccard_overlap: 0.9
      }
      max_sample: 1
      max_trials: 50
    }
    batch_sampler {
      sampler {
        min_scale: 0.3
        max_scale: 1
        min_aspect_ratio: 0.5
        max_aspect_ratio: 2
      }
      sample_constraint {
        max_jaccard_overlap: 1
      }
      max_sample: 1
      max_trials: 50
    }
    label_map_file: "data/VOC0712/labelmap_voc.prototxt"
  }
}
layer {
  name: "cls_specific_bbox"
  type: "SelectBinary"
  bottom: "bbox"
  bottom: "seg"
  top: "cls_specific_bbox"
  top: "binary_mask"
  top: "cls"
  select_binary_param {
    random_select: true
    num_class: 20
  }
}
layer {
  name: "cls_silence"
  type: "Silence"
  bottom: "cls"
}
layer {
  name: "conv1_1"
  type: "Convolution"
  bottom: "data"
  top: "conv1_1"
  param {
    lr_mult: 0
    decay_mult: 0
  }
  param {
    lr_mult: 0
    decay_mult: 0
  }
  convolution_param {
    num_output: 64
    pad: 1
    kernel_size: 3
    weight_filler {
      type: "xavier"
    }
    bias_filler {
      type: "constant"
      value: 0
    }
  }
}
layer {
  name: "relu1_1"
  type: "ReLU"
  bottom: "conv1_1"
  top: "conv1_1"
}
layer {
  name: "conv1_2"
  type: "Convolution"
  bottom: "conv1_1"
  top: "conv1_2"
  param {
    lr_mult: 0
    decay_mult: 0
  }
  param {
    lr_mult: 0
    decay_mult: 0
  }
  convolution_param {
    num_output: 64
    pad: 1
    kernel_size: 3
    weight_filler {
      type: "xavier"
    }
    bias_filler {
      type: "constant"
      value: 0
    }
  }
}
layer {
  name: "relu1_2"
  type: "ReLU"
  bottom: "conv1_2"
  top: "conv1_2"
}
layer {
  name: "pool1"
  type: "Pooling"
  bottom: "conv1_2"
  top: "pool1"
  top: "pool1_mask"
  pooling_param {
    pool: MAX
    kernel_size: 2
    stride: 2
  }
}
layer {
  name: "conv2_1"
  type: "Convolution"
  bottom: "pool1"
  top: "conv2_1"
  param {
    lr_mult: 0
    decay_mult: 0
  }
  param {
    lr_mult: 0
    decay_mult: 0
  }
  convolution_param {
    num_output: 128
    pad: 1
    kernel_size: 3
    weight_filler {
      type: "xavier"
    }
    bias_filler {
      type: "constant"
      value: 0
    }
  }
}
layer {
  name: "relu2_1"
  type: "ReLU"
  bottom: "conv2_1"
  top: "conv2_1"
}
layer {
  name: "conv2_2"
  type: "Convolution"
  bottom: "conv2_1"
  top: "conv2_2"
  param {
    lr_mult: 0
    decay_mult: 0
  }
  param {
    lr_mult: 0
    decay_mult: 0
  }
  convolution_param {
    num_output: 128
    pad: 1
    kernel_size: 3
    weight_filler {
      type: "xavier"
    }
    bias_filler {
      type: "constant"
      value: 0
    }
  }
}
layer {
  name: "relu2_2"
  type: "ReLU"
  bottom: "conv2_2"
  top: "conv2_2"
}
layer {
  name: "pool2"
  type: "Pooling"
  bottom: "conv2_2"
  top: "pool2"
  top: "pool2_mask"
  pooling_param {
    pool: MAX
    kernel_size: 2
    stride: 2
  }
}
layer {
  name: "conv3_1"
  type: "Convolution"
  bottom: "pool2"
  top: "conv3_1"
  param {
    lr_mult: 0
    decay_mult: 0
  }
  param {
    lr_mult: 0
    decay_mult: 0
  }
  convolution_param {
    num_output: 256
    pad: 1
    kernel_size: 3
    weight_filler {
      type: "xavier"
    }
    bias_filler {
      type: "constant"
      value: 0
    }
  }
}
layer {
  name: "relu3_1"
  type: "ReLU"
  bottom: "conv3_1"
  top: "conv3_1"
}
layer {
  name: "conv3_2"
  type: "Convolution"
  bottom: "conv3_1"
  top: "conv3_2"
  param {
    lr_mult: 0
    decay_mult: 0
  }
  param {
    lr_mult: 0
    decay_mult: 0
  }
  convolution_param {
    num_output: 256
    pad: 1
    kernel_size: 3
    weight_filler {
      type: "xavier"
    }
    bias_filler {
      type: "constant"
      value: 0
    }
  }
}
layer {
  name: "relu3_2"
  type: "ReLU"
  bottom: "conv3_2"
  top: "conv3_2"
}
layer {
  name: "conv3_3"
  type: "Convolution"
  bottom: "conv3_2"
  top: "conv3_3"
  param {
    lr_mult: 0
    decay_mult: 0
  }
  param {
    lr_mult: 0
    decay_mult: 0
  }
  convolution_param {
    num_output: 256
    pad: 1
    kernel_size: 3
    weight_filler {
      type: "xavier"
    }
    bias_filler {
      type: "constant"
      value: 0
    }
  }
}
layer {
  name: "relu3_3"
  type: "ReLU"
  bottom: "conv3_3"
  top: "conv3_3"
}
layer {
  name: "pool3"
  type: "Pooling"
  bottom: "conv3_3"
  top: "pool3"
  top: "pool3_mask"
  pooling_param {
    pool: MAX
    kernel_size: 2
    stride: 2
  }
}
layer {
  name: "conv4_1"
  type: "Convolution"
  bottom: "pool3"
  top: "conv4_1"
  param {
    lr_mult: 0
    decay_mult: 0
  }
  param {
    lr_mult: 0
    decay_mult: 0
  }
  convolution_param {
    num_output: 512
    pad: 1
    kernel_size: 3
    weight_filler {
      type: "xavier"
    }
    bias_filler {
      type: "constant"
      value: 0
    }
  }
}
layer {
  name: "relu4_1"
  type: "ReLU"
  bottom: "conv4_1"
  top: "conv4_1"
}
layer {
  name: "conv4_2"
  type: "Convolution"
  bottom: "conv4_1"
  top: "conv4_2"
  param {
    lr_mult: 0
    decay_mult: 0
  }
  param {
    lr_mult: 0
    decay_mult: 0
  }
  convolution_param {
    num_output: 512
    pad: 1
    kernel_size: 3
    weight_filler {
      type: "xavier"
    }
    bias_filler {
      type: "constant"
      value: 0
    }
  }
}
layer {
  name: "relu4_2"
  type: "ReLU"
  bottom: "conv4_2"
  top: "conv4_2"
}
layer {
  name: "conv4_3"
  type: "Convolution"
  bottom: "conv4_2"
  top: "conv4_3"
  param {
    lr_mult: 0
    decay_mult: 0
  }
  param {
    lr_mult: 0
    decay_mult: 0
  }
  convolution_param {
    num_output: 512
    pad: 1
    kernel_size: 3
    weight_filler {
      type: "xavier"
    }
    bias_filler {
      type: "constant"
      value: 0
    }
  }
}
layer {
  name: "relu4_3"
  type: "ReLU"
  bottom: "conv4_3"
  top: "conv4_3"
}
layer {
  name: "pool4"
  type: "Pooling"
  bottom: "conv4_3"
  top: "pool4"
  top: "pool4_mask"
  pooling_param {
    pool: MAX
    kernel_size: 2
    stride: 2
  }
}
layer {
  name: "conv5_1"
  type: "Convolution"
  bottom: "pool4"
  top: "conv5_1"
  param {
    lr_mult: 0
    decay_mult: 0
  }
  param {
    lr_mult: 0
    decay_mult: 0
  }
  convolution_param {
    num_output: 512
    pad: 1
    kernel_size: 3
    weight_filler {
      type: "xavier"
    }
    bias_filler {
      type: "constant"
      value: 0
    }
    dilation: 1
  }
}
layer {
  name: "relu5_1"
  type: "ReLU"
  bottom: "conv5_1"
  top: "conv5_1"
}
layer {
  name: "conv5_2"
  type: "Convolution"
  bottom: "conv5_1"
  top: "conv5_2"
  param {
    lr_mult: 0
    decay_mult: 0
  }
  param {
    lr_mult: 0
    decay_mult: 0
  }
  convolution_param {
    num_output: 512
    pad: 1
    kernel_size: 3
    weight_filler {
      type: "xavier"
    }
    bias_filler {
      type: "constant"
      value: 0
    }
    dilation: 1
  }
}
layer {
  name: "relu5_2"
  type: "ReLU"
  bottom: "conv5_2"
  top: "conv5_2"
}
layer {
  name: "conv5_3"
  type: "Convolution"
  bottom: "conv5_2"
  top: "conv5_3"
  param {
    lr_mult: 0
    decay_mult: 0
  }
  param {
    lr_mult: 0
    decay_mult: 0
  }
  convolution_param {
    num_output: 512
    pad: 1
    kernel_size: 3
    weight_filler {
      type: "xavier"
    }
    bias_filler {
      type: "constant"
      value: 0
    }
    dilation: 1
  }
}
layer {
  name: "relu5_3"
  type: "ReLU"
  bottom: "conv5_3"
  top: "conv5_3"
}
layer {
  name: "pool5"
  type: "Pooling"
  bottom: "conv5_3"
  top: "pool5"
  top: "pool5_mask"
  pooling_param {
    pool: MAX
    kernel_size: 2
    stride: 2
  }
}
layer {
  name: "fc6"
  type: "Convolution"
  bottom: "pool5"
  top: "fc6"
  param {
    lr_mult: 0
    decay_mult: 0
  }
  param {
    lr_mult: 0
    decay_mult: 0
  }
  convolution_param {
    num_output: 1024
    pad: 3
    kernel_size: 3
    weight_filler {
      type: "xavier"
    }
    bias_filler {
      type: "constant"
      value: 0
    }
    dilation: 3
  }
}
layer {
  name: "relu6"
  type: "ReLU"
  bottom: "fc6"
  top: "fc6"
}
layer {
  name: "fc7"
  type: "Convolution"
  bottom: "fc6"
  top: "fc7"
  param {
    lr_mult: 0
    decay_mult: 0
  }
  param {
    lr_mult: 0
    decay_mult: 0
  }
  convolution_param {
    num_output: 1024
    kernel_size: 1
    weight_filler {
      type: "xavier"
    }
    bias_filler {
      type: "constant"
      value: 0
    }
  }
}
layer {
  name: "relu7"
  type: "ReLU"
  bottom: "fc7"
  top: "fc7"
}
layer {
  name: "conv6_1"
  type: "Convolution"
  bottom: "fc7"
  top: "conv6_1"
  param {
    lr_mult: 0
    decay_mult: 1
  }
  param {
    lr_mult: 0
    decay_mult: 0
  }
  convolution_param {
    num_output: 256
    pad: 0
    kernel_size: 1
    stride: 1
    weight_filler {
      type: "xavier"
    }
    bias_filler {
      type: "constant"
      value: 0
    }
  }
}
layer {
  name: "conv6_1_relu"
  type: "ReLU"
  bottom: "conv6_1"
  top: "conv6_1"
}
layer {
  name: "conv6_2"
  type: "Convolution"
  bottom: "conv6_1"
  top: "conv6_2"
  param {
    lr_mult: 0
    decay_mult: 1
  }
  param {
    lr_mult: 0
    decay_mult: 0
  }
  convolution_param {
    num_output: 512
    pad: 1
    kernel_size: 3
    stride: 2
    weight_filler {
      type: "xavier"
    }
    bias_filler {
      type: "constant"
      value: 0
    }
  }
}
layer {
  name: "conv6_2_relu"
  type: "ReLU"
  bottom: "conv6_2"
  top: "conv6_2"
}
layer {
  name: "TL6_1"
  type: "Convolution"
  bottom: "conv6_2"
  top: "TL6_1"
  param {
    lr_mult: 0
    decay_mult: 1
  }
  param {
    lr_mult: 0
    decay_mult: 0
  }
  convolution_param {
    num_output: 256
    pad: 1
    kernel_size: 3
    stride: 1
    weight_filler {
      type: "xavier"
    }
    bias_filler {
      type: "constant"
      value: 0
    }
  }
}
layer {
  name: "TL6_1_relu"
  type: "ReLU"
  bottom: "TL6_1"
  top: "TL6_1"
}
layer {
  name: "TL6_2"
  type: "Convolution"
  bottom: "TL6_1"
  top: "TL6_2"
  param {
    lr_mult: 0
    decay_mult: 1
  }
  param {
    lr_mult: 0
    decay_mult: 0
  }
  convolution_param {
    num_output: 256
    pad: 1
    kernel_size: 3
    stride: 1
    weight_filler {
      type: "xavier"
    }
    bias_filler {
      type: "constant"
      value: 0
    }
  }
}
layer {
  name: "TL6_2_relu"
  type: "ReLU"
  bottom: "TL6_2"
  top: "TL6_2"
}
layer {
  name: "P6"
  type: "Convolution"
  bottom: "TL6_2"
  top: "P6"
  param {
    lr_mult: 0
    decay_mult: 1
  }
  param {
    lr_mult: 0
    decay_mult: 0
  }
  convolution_param {
    num_output: 256
    pad: 1
    kernel_size: 3
    stride: 1
    weight_filler {
      type: "xavier"
    }
    bias_filler {
      type: "constant"
      value: 0
    }
  }
}
layer {
  name: "P6_relu"
  type: "ReLU"
  bottom: "P6"
  top: "P6"
}
layer {
  name: "TL5_1"
  type: "Convolution"
  bottom: "fc7"
  top: "TL5_1"
  param {
    lr_mult: 0
    decay_mult: 1
  }
  param {
    lr_mult: 0
    decay_mult: 0
  }
  convolution_param {
    num_output: 256
    pad: 1
    kernel_size: 3
    stride: 1
    weight_filler {
      type: "xavier"
    }
    bias_filler {
      type: "constant"
      value: 0
    }
  }
}
layer {
  name: "TL5_1_relu"
  type: "ReLU"
  bottom: "TL5_1"
  top: "TL5_1"
}
layer {
  name: "TL5_2"
  type: "Convolution"
  bottom: "TL5_1"
  top: "TL5_2"
  param {
    lr_mult: 0
    decay_mult: 1
  }
  param {
    lr_mult: 0
    decay_mult: 0
  }
  convolution_param {
    num_output: 256
    pad: 1
    kernel_size: 3
    stride: 1
    weight_filler {
      type: "xavier"
    }
    bias_filler {
      type: "constant"
      value: 0
    }
  }
}
layer {
  name: "P6-up"
  type: "Deconvolution"
  bottom: "P6"
  top: "P6-up"
  param {
    lr_mult: 0
    decay_mult: 1
  }
  param {
    lr_mult: 0
    decay_mult: 0
  }
  convolution_param {
    num_output: 256
    pad: 0
    kernel_size: 2
    stride: 2
    weight_filler {
      type: "xavier"
    }
    bias_filler {
      type: "constant"
      value: 0
    }
  }
}
layer {
  name: "Elt5"
  type: "Eltwise"
  bottom: "TL5_2"
  bottom: "P6-up"
  top: "Elt5"
}
layer {
  name: "Elt5_relu"
  type: "ReLU"
  bottom: "Elt5"
  top: "Elt5"
}
layer {
  name: "P5"
  type: "Convolution"
  bottom: "Elt5"
  top: "P5"
  param {
    lr_mult: 0
    decay_mult: 1
  }
  param {
    lr_mult: 0
    decay_mult: 0
  }
  convolution_param {
    num_output: 256
    pad: 1
    kernel_size: 3
    stride: 1
    weight_filler {
      type: "xavier"
    }
    bias_filler {
      type: "constant"
      value: 0
    }
  }
}
layer {
  name: "P5_relu"
  type: "ReLU"
  bottom: "P5"
  top: "P5"
}
layer {
  name: "conv5_3_norm"
  type: "Normalize"
  bottom: "conv5_3"
  top: "conv5_3_norm"
  norm_param {
    across_spatial: false
    scale_filler {
      type: "constant"
      value: 8
    }
    channel_shared: false
  }
}
layer {
  name: "TL4_1"
  type: "Convolution"
  bottom: "conv5_3_norm"
  top: "TL4_1"
  param {
    lr_mult: 0
    decay_mult: 1
  }
  param {
    lr_mult: 0
    decay_mult: 0
  }
  convolution_param {
    num_output: 256
    pad: 1
    kernel_size: 3
    stride: 1
    weight_filler {
      type: "xavier"
    }
    bias_filler {
      type: "constant"
      value: 0
    }
  }
}
layer {
  name: "TL4_1_relu"
  type: "ReLU"
  bottom: "TL4_1"
  top: "TL4_1"
}
layer {
  name: "TL4_2"
  type: "Convolution"
  bottom: "TL4_1"
  top: "TL4_2"
  param {
    lr_mult: 0
    decay_mult: 1
  }
  param {
    lr_mult: 0
    decay_mult: 0
  }
  convolution_param {
    num_output: 256
    pad: 1
    kernel_size: 3
    stride: 1
    weight_filler {
      type: "xavier"
    }
    bias_filler {
      type: "constant"
      value: 0
    }
  }
}
layer {
  name: "P5-up"
  type: "Deconvolution"
  bottom: "P5"
  top: "P5-up"
  param {
    lr_mult: 0
    decay_mult: 1
  }
  param {
    lr_mult: 0
    decay_mult: 0
  }
  convolution_param {
    num_output: 256
    pad: 0
    kernel_size: 2
    stride: 2
    weight_filler {
      type: "xavier"
    }
    bias_filler {
      type: "constant"
      value: 0
    }
  }
}
layer {
  name: "Elt4"
  type: "Eltwise"
  bottom: "TL4_2"
  bottom: "P5-up"
  top: "Elt4"
}
layer {
  name: "Elt4_relu"
  type: "ReLU"
  bottom: "Elt4"
  top: "Elt4"
}
layer {
  name: "P4"
  type: "Convolution"
  bottom: "Elt4"
  top: "P4"
  param {
    lr_mult: 0
    decay_mult: 1
  }
  param {
    lr_mult: 0
    decay_mult: 0
  }
  convolution_param {
    num_output: 256
    pad: 1
    kernel_size: 3
    stride: 1
    weight_filler {
      type: "xavier"
    }
    bias_filler {
      type: "constant"
      value: 0
    }
  }
}
layer {
  name: "P4_relu"
  type: "ReLU"
  bottom: "P4"
  top: "P4"
}
layer {
  name: "conv4_3_norm"
  type: "Normalize"
  bottom: "conv4_3"
  top: "conv4_3_norm"
  norm_param {
    across_spatial: false
    scale_filler {
      type: "constant"
      value: 10
    }
    channel_shared: false
  }
}
layer {
  name: "TL3_1"
  type: "Convolution"
  bottom: "conv4_3_norm"
  top: "TL3_1"
  param {
    lr_mult: 0
    decay_mult: 1
  }
  param {
    lr_mult: 0
    decay_mult: 0
  }
  convolution_param {
    num_output: 256
    pad: 1
    kernel_size: 3
    stride: 1
    weight_filler {
      type: "xavier"
    }
    bias_filler {
      type: "constant"
      value: 0
    }
  }
}
layer {
  name: "TL3_1_relu"
  type: "ReLU"
  bottom: "TL3_1"
  top: "TL3_1"
}
layer {
  name: "TL3_2"
  type: "Convolution"
  bottom: "TL3_1"
  top: "TL3_2"
  param {
    lr_mult: 0
    decay_mult: 1
  }
  param {
    lr_mult: 0
    decay_mult: 0
  }
  convolution_param {
    num_output: 256
    pad: 1
    kernel_size: 3
    stride: 1
    weight_filler {
      type: "xavier"
    }
    bias_filler {
      type: "constant"
      value: 0
    }
  }
}
layer {
  name: "P4-up"
  type: "Deconvolution"
  bottom: "P4"
  top: "P4-up"
  param {
    lr_mult: 0
    decay_mult: 1
  }
  param {
    lr_mult: 0
    decay_mult: 0
  }
  convolution_param {
    num_output: 256
    pad: 0
    kernel_size: 2
    stride: 2
    weight_filler {
      type: "xavier"
    }
    bias_filler {
      type: "constant"
      value: 0
    }
  }
}
layer {
  name: "Elt3"
  type: "Eltwise"
  bottom: "TL3_2"
  bottom: "P4-up"
  top: "Elt3"
}
layer {
  name: "Elt3_relu"
  type: "ReLU"
  bottom: "Elt3"
  top: "Elt3"
}
layer {
  name: "P3"
  type: "Convolution"
  bottom: "Elt3"
  top: "P3"
  param {
    lr_mult: 0
    decay_mult: 1
  }
  param {
    lr_mult: 0
    decay_mult: 0
  }
  convolution_param {
    num_output: 256
    pad: 1
    kernel_size: 3
    stride: 1
    weight_filler {
      type: "xavier"
    }
    bias_filler {
      type: "constant"
      value: 0
    }
  }
}
layer {
  name: "P3_relu"
  type: "ReLU"
  bottom: "P3"
  top: "P3"
}
layer {
  name: "conv6_2_crop"
  type: "CropBBox"
  bottom: "P6"
  bottom: "cls_specific_bbox"
  top: "conv6_2_crop"
}
layer {
  name: "deconv6_2"
  type: "Deconvolution"
  bottom: "conv6_2_crop"
  top: "deconv6_2"
  param {
    lr_mult: 1
    decay_mult: 1
  }
  convolution_param {
    num_output: 256
    bias_term: false
    pad: 1
    kernel_size: 3
    stride: 2
    weight_filler {
      type: "gaussian"
      std: 0.01
    }
  }
}
layer {
  name: "deconv6_2_bn"
  type: "BatchNorm"
  bottom: "deconv6_2"
  top: "deconv6_2"
}
layer {
  name: "deconv6_2_scale"
  type: "Scale"
  bottom: "deconv6_2"
  top: "deconv6_2"
  scale_param {
    bias_term: true
  }
}
layer {
  name: "deconv6_2_relu"
  type: "ReLU"
  bottom: "deconv6_2"
  top: "deconv6_2"
}
layer {
  name: "deconv6_1"
  type: "Deconvolution"
  bottom: "deconv6_2"
  top: "deconv6_1"
  param {
    lr_mult: 1
    decay_mult: 1
  }
  convolution_param {
    num_output: 1024
    bias_term: false
    pad: 0
    kernel_size: 1
    stride: 1
    weight_filler {
      type: "gaussian"
      std: 0.01
    }
  }
}
layer {
  name: "deconv6_1_bn"
  type: "BatchNorm"
  bottom: "deconv6_1"
  top: "deconv6_1"
}
layer {
  name: "deconv6_1_scale"
  type: "Scale"
  bottom: "deconv6_1"
  top: "deconv6_1"
  scale_param {
    bias_term: true
  }
}
layer {
  name: "deconv6_1_relu"
  type: "ReLU"
  bottom: "deconv6_1"
  top: "deconv6_1"
}
layer {
  name: "fc7_crop"
  type: "CropBBox"
  bottom: "P5"
  bottom: "cls_specific_bbox"
  top: "fc7_crop"
}
layer {
  name: "defc7_concat"
  type: "Concat"
  bottom: "fc7_crop"
  bottom: "deconv6_1"
  top: "defc7_concat"
}
layer {
  name: "defc7"
  type: "Deconvolution"
  bottom: "defc7_concat"
  top: "defc7"
  param {
    lr_mult: 1
    decay_mult: 1
  }
  param {
    lr_mult: 2
    decay_mult: 0
  }
  convolution_param {
    num_output: 1024
    kernel_size: 1
    weight_filler {
      type: "xavier"
    }
    bias_filler {
      type: "constant"
      value: 0
    }
  }
}
layer {
  name: "derelu7"
  type: "ReLU"
  bottom: "defc7"
  top: "defc7"
}
layer {
  name: "defc6"
  type: "Deconvolution"
  bottom: "defc7"
  top: "defc6"
  param {
    lr_mult: 1
    decay_mult: 1
  }
  param {
    lr_mult: 2
    decay_mult: 0
  }
  convolution_param {
    num_output: 512
    pad: 3
    kernel_size: 3
    weight_filler {
      type: "xavier"
    }
    bias_filler {
      type: "constant"
      value: 0
    }
    dilation: 3
  }
}
layer {
  name: "derelu6"
  type: "ReLU"
  bottom: "defc6"
  top: "defc6"
}
layer {
  name: "unpool5"
  type: "Unpooling"
  bottom: "defc6"
  bottom: "pool5_mask"
  top: "unpool5"
  unpooling_param {
    unpool: MAX
    kernel_size: 2
    stride: 2
    unpool_size: 20
  }
}
layer {
  name: "conv5_3_crop"
  type: "CropBBox"
  bottom: "P4"
  bottom: "cls_specific_bbox"
  top: "conv5_3_crop"
}
layer {
  name: "deconv5_3_concat"
  type: "Concat"
  bottom: "conv5_3_crop"
  bottom: "unpool5"
  top: "deconv5_3_concat"
}
layer {
  name: "deconv5_3"
  type: "Deconvolution"
  bottom: "deconv5_3_concat"
  top: "deconv5_3"
  param {
    lr_mult: 1
    decay_mult: 1
  }
  param {
    lr_mult: 2
    decay_mult: 0
  }
  convolution_param {
    num_output: 512
    pad: 3
    kernel_size: 3
    weight_filler {
      type: "xavier"
    }
    bias_filler {
      type: "constant"
      value: 0
    }
    dilation: 3
  }
}
layer {
  name: "derelu5_3"
  type: "ReLU"
  bottom: "deconv5_3"
  top: "deconv5_3"
}
layer {
  name: "deconv5_2"
  type: "Deconvolution"
  bottom: "deconv5_3"
  top: "deconv5_2"
  param {
    lr_mult: 1
    decay_mult: 1
  }
  param {
    lr_mult: 2
    decay_mult: 0
  }
  convolution_param {
    num_output: 512
    pad: 3
    kernel_size: 3
    weight_filler {
      type: "xavier"
    }
    bias_filler {
      type: "constant"
      value: 0
    }
    dilation: 3
  }
}
layer {
  name: "derelu5_2"
  type: "ReLU"
  bottom: "deconv5_2"
  top: "deconv5_2"
}
layer {
  name: "deconv5_1"
  type: "Deconvolution"
  bottom: "deconv5_2"
  top: "deconv5_1"
  param {
    lr_mult: 1
    decay_mult: 1
  }
  param {
    lr_mult: 2
    decay_mult: 0
  }
  convolution_param {
    num_output: 512
    pad: 3
    kernel_size: 3
    weight_filler {
      type: "xavier"
    }
    bias_filler {
      type: "constant"
      value: 0
    }
    dilation: 3
  }
}
layer {
  name: "derelu5_1"
  type: "ReLU"
  bottom: "deconv5_1"
  top: "deconv5_1"
}
layer {
  name: "unpool4"
  type: "Unpooling"
  bottom: "deconv5_1"
  bottom: "pool4_mask"
  top: "unpool4"
  unpooling_param {
    unpool: MAX
    kernel_size: 2
    stride: 2
    unpool_size: 40
  }
}
layer {
  name: "conv4_3_crop"
  type: "CropBBox"
  bottom: "P3"
  bottom: "cls_specific_bbox"
  top: "conv4_3_crop"
}
layer {
  name: "deconv4_3_concat"
  type: "Concat"
  bottom: "conv4_3_crop"
  bottom: "unpool4"
  top: "deconv4_3_concat"
}
layer {
  name: "deconv4_3"
  type: "Deconvolution"
  bottom: "deconv4_3_concat"
  top: "deconv4_3"
  param {
    lr_mult: 1
    decay_mult: 1
  }
  param {
    lr_mult: 2
    decay_mult: 0
  }
  convolution_param {
    num_output: 512
    pad: 1
    kernel_size: 3
    weight_filler {
      type: "xavier"
    }
    bias_filler {
      type: "constant"
      value: 0
    }
  }
}
layer {
  name: "derelu4_3"
  type: "ReLU"
  bottom: "deconv4_3"
  top: "deconv4_3"
}
layer {
  name: "deconv4_2"
  type: "Deconvolution"
  bottom: "deconv4_3"
  top: "deconv4_2"
  param {
    lr_mult: 1
    decay_mult: 1
  }
  param {
    lr_mult: 2
    decay_mult: 0
  }
  convolution_param {
    num_output: 512
    pad: 1
    kernel_size: 3
    weight_filler {
      type: "xavier"
    }
    bias_filler {
      type: "constant"
      value: 0
    }
  }
}
layer {
  name: "derelu4_2"
  type: "ReLU"
  bottom: "deconv4_2"
  top: "deconv4_2"
}
layer {
  name: "deconv4_1"
  type: "Deconvolution"
  bottom: "deconv4_2"
  top: "deconv4_1"
  param {
    lr_mult: 1
    decay_mult: 1
  }
  param {
    lr_mult: 2
    decay_mult: 0
  }
  convolution_param {
    num_output: 256
    pad: 1
    kernel_size: 3
    weight_filler {
      type: "xavier"
    }
    bias_filler {
      type: "constant"
      value: 0
    }
  }
}
layer {
  name: "derelu4_1"
  type: "ReLU"
  bottom: "deconv4_1"
  top: "deconv4_1"
}
layer {
  name: "unpool3"
  type: "Unpooling"
  bottom: "deconv4_1"
  bottom: "pool3_mask"
  top: "unpool3"
  unpooling_param {
    unpool: MAX
    kernel_size: 2
    stride: 2
    unpool_size: 80
  }
}
layer {
  name: "deconv3_3"
  type: "Deconvolution"
  bottom: "unpool3"
  top: "deconv3_3"
  param {
    lr_mult: 1
    decay_mult: 1
  }
  param {
    lr_mult: 2
    decay_mult: 0
  }
  convolution_param {
    num_output: 256
    pad: 1
    kernel_size: 3
    weight_filler {
      type: "xavier"
    }
    bias_filler {
      type: "constant"
      value: 0
    }
  }
}
layer {
  name: "derelu3_3"
  type: "ReLU"
  bottom: "deconv3_3"
  top: "deconv3_3"
}
layer {
  name: "deconv3_2"
  type: "Deconvolution"
  bottom: "deconv3_3"
  top: "deconv3_2"
  param {
    lr_mult: 1
    decay_mult: 1
  }
  param {
    lr_mult: 2
    decay_mult: 0
  }
  convolution_param {
    num_output: 256
    pad: 1
    kernel_size: 3
    weight_filler {
      type: "xavier"
    }
    bias_filler {
      type: "constant"
      value: 0
    }
  }
}
layer {
  name: "derelu3_2"
  type: "ReLU"
  bottom: "deconv3_2"
  top: "deconv3_2"
}
layer {
  name: "deconv3_1"
  type: "Deconvolution"
  bottom: "deconv3_2"
  top: "deconv3_1"
  param {
    lr_mult: 1
    decay_mult: 1
  }
  param {
    lr_mult: 2
    decay_mult: 0
  }
  convolution_param {
    num_output: 128
    pad: 1
    kernel_size: 3
    weight_filler {
      type: "xavier"
    }
    bias_filler {
      type: "constant"
      value: 0
    }
  }
}
layer {
  name: "derelu3_1"
  type: "ReLU"
  bottom: "deconv3_1"
  top: "deconv3_1"
}
layer {
  name: "unpool2"
  type: "Unpooling"
  bottom: "deconv3_1"
  bottom: "pool2_mask"
  top: "unpool2"
  unpooling_param {
    unpool: MAX
    kernel_size: 2
    stride: 2
    unpool_size: 160
  }
}
layer {
  name: "deconv2_2"
  type: "Deconvolution"
  bottom: "unpool2"
  top: "deconv2_2"
  param {
    lr_mult: 1
    decay_mult: 1
  }
  param {
    lr_mult: 2
    decay_mult: 0
  }
  convolution_param {
    num_output: 128
    pad: 1
    kernel_size: 3
    weight_filler {
      type: "xavier"
    }
    bias_filler {
      type: "constant"
      value: 0
    }
  }
}
layer {
  name: "derelu2_2"
  type: "ReLU"
  bottom: "deconv2_2"
  top: "deconv2_2"
}
layer {
  name: "deconv2_1"
  type: "Deconvolution"
  bottom: "deconv2_2"
  top: "deconv2_1"
  param {
    lr_mult: 1
    decay_mult: 1
  }
  param {
    lr_mult: 2
    decay_mult: 0
  }
  convolution_param {
    num_output: 64
    pad: 1
    kernel_size: 3
    weight_filler {
      type: "xavier"
    }
    bias_filler {
      type: "constant"
      value: 0
    }
  }
}
layer {
  name: "derelu2_1"
  type: "ReLU"
  bottom: "deconv2_1"
  top: "deconv2_1"
}
layer {
  name: "unpool1"
  type: "Unpooling"
  bottom: "deconv2_1"
  bottom: "pool1_mask"
  top: "unpool1"
  unpooling_param {
    unpool: MAX
    kernel_size: 2
    stride: 2
    unpool_size: 320
  }
}
layer {
  name: "deconv1_2"
  type: "Deconvolution"
  bottom: "unpool1"
  top: "deconv1_2"
  param {
    lr_mult: 1
    decay_mult: 1
  }
  param {
    lr_mult: 2
    decay_mult: 0
  }
  convolution_param {
    num_output: 64
    pad: 1
    kernel_size: 3
    weight_filler {
      type: "xavier"
    }
    bias_filler {
      type: "constant"
      value: 0
    }
  }
}
layer {
  name: "derelu1_2"
  type: "ReLU"
  bottom: "deconv1_2"
  top: "deconv1_2"
}
layer {
  name: "deconv1_1"
  type: "Deconvolution"
  bottom: "deconv1_2"
  top: "deconv1_1"
  param {
    lr_mult: 1
    decay_mult: 1
  }
  param {
    lr_mult: 2
    decay_mult: 0
  }
  convolution_param {
    num_output: 64
    pad: 1
    kernel_size: 3
    weight_filler {
      type: "xavier"
    }
    bias_filler {
      type: "constant"
      value: 0
    }
  }
}
layer {
  name: "derelu1_1"
  type: "ReLU"
  bottom: "deconv1_1"
  top: "deconv1_1"
}
layer {
  name: "seg_score"
  type: "Deconvolution"
  bottom: "deconv1_1"
  top: "seg_score"
  param {
    lr_mult: 1
    decay_mult: 1
  }
  param {
    lr_mult: 2
    decay_mult: 0
  }
  convolution_param {
    num_output: 2
    pad: 1
    kernel_size: 3
    weight_filler {
      type: "xavier"
    }
    bias_filler {
      type: "constant"
      value: 0
    }
  }
}
layer {
  name: "seg_loss"
  type: "SoftmaxWithLoss"
  bottom: "seg_score"
  bottom: "binary_mask"
  top: "seg_loss"
  loss_param {
    ignore_label: 255
  }
}
I0112 18:20:23.654616 24319 layer_factory.hpp:77] Creating layer data
I0112 18:20:23.655508 24319 net.cpp:100] Creating Layer data
I0112 18:20:23.655563 24319 net.cpp:408] data -> data
I0112 18:20:23.655750 24319 net.cpp:408] data -> bbox
I0112 18:20:23.655815 24319 net.cpp:408] data -> seg
I0112 18:20:23.656533 24326 db_lmdb.cpp:35] Opened lmdb /home/amax/NiuChuang/data/VOCdevkit/VOC0712/lmdb/VOC0712_trainval_lmdb_test2
I0112 18:20:23.705116 24319 bbox_seg_data_layer.cpp:67] output data size: 8,3,320,320
I0112 18:20:23.729923 24319 bbox_seg_prefetching.cpp:53] Initializing prefetch
I0112 18:20:23.730048 24319 bbox_seg_prefetching.cpp:56] Prefetch initialized.
I0112 18:20:23.730062 24319 net.cpp:150] Setting up data
I0112 18:20:23.730109 24319 net.cpp:157] Top shape: 8 3 320 320 (2457600)
I0112 18:20:23.730120 24319 net.cpp:157] Top shape: 1 1 8 8 (64)
I0112 18:20:23.730132 24319 net.cpp:157] Top shape: 8 1 320 320 (819200)
I0112 18:20:23.730142 24319 net.cpp:165] Memory required for data: 13107456
I0112 18:20:23.730177 24319 layer_factory.hpp:77] Creating layer cls_specific_bbox
I0112 18:20:23.730268 24319 net.cpp:100] Creating Layer cls_specific_bbox
I0112 18:20:23.730293 24319 net.cpp:434] cls_specific_bbox <- bbox
I0112 18:20:23.730342 24319 net.cpp:434] cls_specific_bbox <- seg
I0112 18:20:23.730365 24319 net.cpp:408] cls_specific_bbox -> cls_specific_bbox
I0112 18:20:23.730404 24319 net.cpp:408] cls_specific_bbox -> binary_mask
I0112 18:20:23.730432 24319 net.cpp:408] cls_specific_bbox -> cls
I0112 18:20:23.730540 24319 net.cpp:150] Setting up cls_specific_bbox
I0112 18:20:23.730559 24319 net.cpp:157] Top shape: 1 1 1 8 (8)
I0112 18:20:23.730568 24319 net.cpp:157] Top shape: 8 1 320 320 (819200)
I0112 18:20:23.730576 24319 net.cpp:157] Top shape: 8 20 (160)
I0112 18:20:23.730581 24319 net.cpp:165] Memory required for data: 16384928
I0112 18:20:23.730588 24319 layer_factory.hpp:77] Creating layer cls_specific_bbox_cls_specific_bbox_0_split
I0112 18:20:23.730614 24319 net.cpp:100] Creating Layer cls_specific_bbox_cls_specific_bbox_0_split
I0112 18:20:23.730624 24319 net.cpp:434] cls_specific_bbox_cls_specific_bbox_0_split <- cls_specific_bbox
I0112 18:20:23.730645 24319 net.cpp:408] cls_specific_bbox_cls_specific_bbox_0_split -> cls_specific_bbox_cls_specific_bbox_0_split_0
I0112 18:20:23.730669 24319 net.cpp:408] cls_specific_bbox_cls_specific_bbox_0_split -> cls_specific_bbox_cls_specific_bbox_0_split_1
I0112 18:20:23.730686 24319 net.cpp:408] cls_specific_bbox_cls_specific_bbox_0_split -> cls_specific_bbox_cls_specific_bbox_0_split_2
I0112 18:20:23.730707 24319 net.cpp:408] cls_specific_bbox_cls_specific_bbox_0_split -> cls_specific_bbox_cls_specific_bbox_0_split_3
I0112 18:20:23.730785 24319 net.cpp:150] Setting up cls_specific_bbox_cls_specific_bbox_0_split
I0112 18:20:23.730826 24319 net.cpp:157] Top shape: 1 1 1 8 (8)
I0112 18:20:23.730834 24319 net.cpp:157] Top shape: 1 1 1 8 (8)
I0112 18:20:23.730842 24319 net.cpp:157] Top shape: 1 1 1 8 (8)
I0112 18:20:23.730849 24319 net.cpp:157] Top shape: 1 1 1 8 (8)
I0112 18:20:23.730854 24319 net.cpp:165] Memory required for data: 16385056
I0112 18:20:23.730861 24319 layer_factory.hpp:77] Creating layer cls_silence
I0112 18:20:23.730882 24319 net.cpp:100] Creating Layer cls_silence
I0112 18:20:23.730892 24319 net.cpp:434] cls_silence <- cls
I0112 18:20:23.730911 24319 net.cpp:150] Setting up cls_silence
I0112 18:20:23.730916 24319 net.cpp:165] Memory required for data: 16385056
I0112 18:20:23.730922 24319 layer_factory.hpp:77] Creating layer conv1_1
I0112 18:20:23.730971 24319 net.cpp:100] Creating Layer conv1_1
I0112 18:20:23.730983 24319 net.cpp:434] conv1_1 <- data
I0112 18:20:23.731005 24319 net.cpp:408] conv1_1 -> conv1_1
I0112 18:20:23.734148 24319 net.cpp:150] Setting up conv1_1
I0112 18:20:23.734171 24319 net.cpp:157] Top shape: 8 64 320 320 (52428800)
I0112 18:20:23.734179 24319 net.cpp:165] Memory required for data: 226100256
I0112 18:20:23.734261 24319 layer_factory.hpp:77] Creating layer relu1_1
I0112 18:20:23.734292 24319 net.cpp:100] Creating Layer relu1_1
I0112 18:20:23.734304 24319 net.cpp:434] relu1_1 <- conv1_1
I0112 18:20:23.734329 24319 net.cpp:395] relu1_1 -> conv1_1 (in-place)
I0112 18:20:23.734354 24319 net.cpp:150] Setting up relu1_1
I0112 18:20:23.734362 24319 net.cpp:157] Top shape: 8 64 320 320 (52428800)
I0112 18:20:23.734369 24319 net.cpp:165] Memory required for data: 435815456
I0112 18:20:23.734374 24319 layer_factory.hpp:77] Creating layer conv1_2
I0112 18:20:23.734402 24319 net.cpp:100] Creating Layer conv1_2
I0112 18:20:23.734413 24319 net.cpp:434] conv1_2 <- conv1_1
I0112 18:20:23.734436 24319 net.cpp:408] conv1_2 -> conv1_2
I0112 18:20:23.738312 24319 net.cpp:150] Setting up conv1_2
I0112 18:20:23.738337 24319 net.cpp:157] Top shape: 8 64 320 320 (52428800)
I0112 18:20:23.738342 24319 net.cpp:165] Memory required for data: 645530656
I0112 18:20:23.738373 24319 layer_factory.hpp:77] Creating layer relu1_2
I0112 18:20:23.738396 24319 net.cpp:100] Creating Layer relu1_2
I0112 18:20:23.738409 24319 net.cpp:434] relu1_2 <- conv1_2
I0112 18:20:23.738427 24319 net.cpp:395] relu1_2 -> conv1_2 (in-place)
I0112 18:20:23.738448 24319 net.cpp:150] Setting up relu1_2
I0112 18:20:23.738458 24319 net.cpp:157] Top shape: 8 64 320 320 (52428800)
I0112 18:20:23.738463 24319 net.cpp:165] Memory required for data: 855245856
I0112 18:20:23.738468 24319 layer_factory.hpp:77] Creating layer pool1
I0112 18:20:23.738507 24319 net.cpp:100] Creating Layer pool1
I0112 18:20:23.738517 24319 net.cpp:434] pool1 <- conv1_2
I0112 18:20:23.738538 24319 net.cpp:408] pool1 -> pool1
I0112 18:20:23.738565 24319 net.cpp:408] pool1 -> pool1_mask
I0112 18:20:23.738639 24319 net.cpp:150] Setting up pool1
I0112 18:20:23.738653 24319 net.cpp:157] Top shape: 8 64 160 160 (13107200)
I0112 18:20:23.738662 24319 net.cpp:157] Top shape: 8 64 160 160 (13107200)
I0112 18:20:23.738667 24319 net.cpp:165] Memory required for data: 960103456
I0112 18:20:23.738672 24319 layer_factory.hpp:77] Creating layer conv2_1
I0112 18:20:23.738703 24319 net.cpp:100] Creating Layer conv2_1
I0112 18:20:23.738715 24319 net.cpp:434] conv2_1 <- pool1
I0112 18:20:23.738741 24319 net.cpp:408] conv2_1 -> conv2_1
I0112 18:20:23.743309 24319 net.cpp:150] Setting up conv2_1
I0112 18:20:23.743327 24319 net.cpp:157] Top shape: 8 128 160 160 (26214400)
I0112 18:20:23.743331 24319 net.cpp:165] Memory required for data: 1064961056
I0112 18:20:23.743360 24319 layer_factory.hpp:77] Creating layer relu2_1
I0112 18:20:23.743381 24319 net.cpp:100] Creating Layer relu2_1
I0112 18:20:23.743391 24319 net.cpp:434] relu2_1 <- conv2_1
I0112 18:20:23.743409 24319 net.cpp:395] relu2_1 -> conv2_1 (in-place)
I0112 18:20:23.743429 24319 net.cpp:150] Setting up relu2_1
I0112 18:20:23.743438 24319 net.cpp:157] Top shape: 8 128 160 160 (26214400)
I0112 18:20:23.743470 24319 net.cpp:165] Memory required for data: 1169818656
I0112 18:20:23.743477 24319 layer_factory.hpp:77] Creating layer conv2_2
I0112 18:20:23.743505 24319 net.cpp:100] Creating Layer conv2_2
I0112 18:20:23.743515 24319 net.cpp:434] conv2_2 <- conv2_1
I0112 18:20:23.743541 24319 net.cpp:408] conv2_2 -> conv2_2
I0112 18:20:23.752404 24319 net.cpp:150] Setting up conv2_2
I0112 18:20:23.752436 24319 net.cpp:157] Top shape: 8 128 160 160 (26214400)
I0112 18:20:23.752440 24319 net.cpp:165] Memory required for data: 1274676256
I0112 18:20:23.752461 24319 layer_factory.hpp:77] Creating layer relu2_2
I0112 18:20:23.752486 24319 net.cpp:100] Creating Layer relu2_2
I0112 18:20:23.752499 24319 net.cpp:434] relu2_2 <- conv2_2
I0112 18:20:23.752526 24319 net.cpp:395] relu2_2 -> conv2_2 (in-place)
I0112 18:20:23.752548 24319 net.cpp:150] Setting up relu2_2
I0112 18:20:23.752557 24319 net.cpp:157] Top shape: 8 128 160 160 (26214400)
I0112 18:20:23.752569 24319 net.cpp:165] Memory required for data: 1379533856
I0112 18:20:23.752575 24319 layer_factory.hpp:77] Creating layer pool2
I0112 18:20:23.752598 24319 net.cpp:100] Creating Layer pool2
I0112 18:20:23.752606 24319 net.cpp:434] pool2 <- conv2_2
I0112 18:20:23.752629 24319 net.cpp:408] pool2 -> pool2
I0112 18:20:23.752660 24319 net.cpp:408] pool2 -> pool2_mask
I0112 18:20:23.752723 24319 net.cpp:150] Setting up pool2
I0112 18:20:23.752741 24319 net.cpp:157] Top shape: 8 128 80 80 (6553600)
I0112 18:20:23.752749 24319 net.cpp:157] Top shape: 8 128 80 80 (6553600)
I0112 18:20:23.752754 24319 net.cpp:165] Memory required for data: 1431962656
I0112 18:20:23.752760 24319 layer_factory.hpp:77] Creating layer conv3_1
I0112 18:20:23.752791 24319 net.cpp:100] Creating Layer conv3_1
I0112 18:20:23.752802 24319 net.cpp:434] conv3_1 <- pool2
I0112 18:20:23.752827 24319 net.cpp:408] conv3_1 -> conv3_1
I0112 18:20:23.780308 24319 net.cpp:150] Setting up conv3_1
I0112 18:20:23.780378 24319 net.cpp:157] Top shape: 8 256 80 80 (13107200)
I0112 18:20:23.780385 24319 net.cpp:165] Memory required for data: 1484391456
I0112 18:20:23.780457 24319 layer_factory.hpp:77] Creating layer relu3_1
I0112 18:20:23.780504 24319 net.cpp:100] Creating Layer relu3_1
I0112 18:20:23.780524 24319 net.cpp:434] relu3_1 <- conv3_1
I0112 18:20:23.780553 24319 net.cpp:395] relu3_1 -> conv3_1 (in-place)
I0112 18:20:23.780588 24319 net.cpp:150] Setting up relu3_1
I0112 18:20:23.780598 24319 net.cpp:157] Top shape: 8 256 80 80 (13107200)
I0112 18:20:23.780603 24319 net.cpp:165] Memory required for data: 1536820256
I0112 18:20:23.780609 24319 layer_factory.hpp:77] Creating layer conv3_2
I0112 18:20:23.780658 24319 net.cpp:100] Creating Layer conv3_2
I0112 18:20:23.780669 24319 net.cpp:434] conv3_2 <- conv3_1
I0112 18:20:23.780695 24319 net.cpp:408] conv3_2 -> conv3_2
I0112 18:20:23.850169 24319 net.cpp:150] Setting up conv3_2
I0112 18:20:23.850262 24319 net.cpp:157] Top shape: 8 256 80 80 (13107200)
I0112 18:20:23.850270 24319 net.cpp:165] Memory required for data: 1589249056
I0112 18:20:23.850317 24319 layer_factory.hpp:77] Creating layer relu3_2
I0112 18:20:23.850364 24319 net.cpp:100] Creating Layer relu3_2
I0112 18:20:23.850385 24319 net.cpp:434] relu3_2 <- conv3_2
I0112 18:20:23.850455 24319 net.cpp:395] relu3_2 -> conv3_2 (in-place)
I0112 18:20:23.850494 24319 net.cpp:150] Setting up relu3_2
I0112 18:20:23.850504 24319 net.cpp:157] Top shape: 8 256 80 80 (13107200)
I0112 18:20:23.850515 24319 net.cpp:165] Memory required for data: 1641677856
I0112 18:20:23.850522 24319 layer_factory.hpp:77] Creating layer conv3_3
I0112 18:20:23.850570 24319 net.cpp:100] Creating Layer conv3_3
I0112 18:20:23.850581 24319 net.cpp:434] conv3_3 <- conv3_2
I0112 18:20:23.850608 24319 net.cpp:408] conv3_3 -> conv3_3
I0112 18:20:23.886559 24319 net.cpp:150] Setting up conv3_3
I0112 18:20:23.886620 24319 net.cpp:157] Top shape: 8 256 80 80 (13107200)
I0112 18:20:23.886626 24319 net.cpp:165] Memory required for data: 1694106656
I0112 18:20:23.886657 24319 layer_factory.hpp:77] Creating layer relu3_3
I0112 18:20:23.886699 24319 net.cpp:100] Creating Layer relu3_3
I0112 18:20:23.886746 24319 net.cpp:434] relu3_3 <- conv3_3
I0112 18:20:23.886782 24319 net.cpp:395] relu3_3 -> conv3_3 (in-place)
I0112 18:20:23.886814 24319 net.cpp:150] Setting up relu3_3
I0112 18:20:23.886824 24319 net.cpp:157] Top shape: 8 256 80 80 (13107200)
I0112 18:20:23.886831 24319 net.cpp:165] Memory required for data: 1746535456
I0112 18:20:23.886838 24319 layer_factory.hpp:77] Creating layer pool3
I0112 18:20:23.886864 24319 net.cpp:100] Creating Layer pool3
I0112 18:20:23.886873 24319 net.cpp:434] pool3 <- conv3_3
I0112 18:20:23.886896 24319 net.cpp:408] pool3 -> pool3
I0112 18:20:23.886922 24319 net.cpp:408] pool3 -> pool3_mask
I0112 18:20:23.886992 24319 net.cpp:150] Setting up pool3
I0112 18:20:23.887009 24319 net.cpp:157] Top shape: 8 256 40 40 (3276800)
I0112 18:20:23.887017 24319 net.cpp:157] Top shape: 8 256 40 40 (3276800)
I0112 18:20:23.887022 24319 net.cpp:165] Memory required for data: 1772749856
I0112 18:20:23.887028 24319 layer_factory.hpp:77] Creating layer conv4_1
I0112 18:20:23.887065 24319 net.cpp:100] Creating Layer conv4_1
I0112 18:20:23.887078 24319 net.cpp:434] conv4_1 <- pool3
I0112 18:20:23.887102 24319 net.cpp:408] conv4_1 -> conv4_1
I0112 18:20:23.959033 24319 net.cpp:150] Setting up conv4_1
I0112 18:20:23.959084 24319 net.cpp:157] Top shape: 8 512 40 40 (6553600)
I0112 18:20:23.959090 24319 net.cpp:165] Memory required for data: 1798964256
I0112 18:20:23.959121 24319 layer_factory.hpp:77] Creating layer relu4_1
I0112 18:20:23.959161 24319 net.cpp:100] Creating Layer relu4_1
I0112 18:20:23.959182 24319 net.cpp:434] relu4_1 <- conv4_1
I0112 18:20:23.959211 24319 net.cpp:395] relu4_1 -> conv4_1 (in-place)
I0112 18:20:23.959242 24319 net.cpp:150] Setting up relu4_1
I0112 18:20:23.959252 24319 net.cpp:157] Top shape: 8 512 40 40 (6553600)
I0112 18:20:23.959259 24319 net.cpp:165] Memory required for data: 1825178656
I0112 18:20:23.959270 24319 layer_factory.hpp:77] Creating layer conv4_2
I0112 18:20:23.959309 24319 net.cpp:100] Creating Layer conv4_2
I0112 18:20:23.959319 24319 net.cpp:434] conv4_2 <- conv4_1
I0112 18:20:23.959345 24319 net.cpp:408] conv4_2 -> conv4_2
I0112 18:20:24.100736 24319 net.cpp:150] Setting up conv4_2
I0112 18:20:24.100792 24319 net.cpp:157] Top shape: 8 512 40 40 (6553600)
I0112 18:20:24.100798 24319 net.cpp:165] Memory required for data: 1851393056
I0112 18:20:24.100872 24319 layer_factory.hpp:77] Creating layer relu4_2
I0112 18:20:24.100917 24319 net.cpp:100] Creating Layer relu4_2
I0112 18:20:24.100939 24319 net.cpp:434] relu4_2 <- conv4_2
I0112 18:20:24.100970 24319 net.cpp:395] relu4_2 -> conv4_2 (in-place)
I0112 18:20:24.101003 24319 net.cpp:150] Setting up relu4_2
I0112 18:20:24.101014 24319 net.cpp:157] Top shape: 8 512 40 40 (6553600)
I0112 18:20:24.101019 24319 net.cpp:165] Memory required for data: 1877607456
I0112 18:20:24.101027 24319 layer_factory.hpp:77] Creating layer conv4_3
I0112 18:20:24.101068 24319 net.cpp:100] Creating Layer conv4_3
I0112 18:20:24.101079 24319 net.cpp:434] conv4_3 <- conv4_2
I0112 18:20:24.101104 24319 net.cpp:408] conv4_3 -> conv4_3
I0112 18:20:24.245244 24319 net.cpp:150] Setting up conv4_3
I0112 18:20:24.245332 24319 net.cpp:157] Top shape: 8 512 40 40 (6553600)
I0112 18:20:24.245338 24319 net.cpp:165] Memory required for data: 1903821856
I0112 18:20:24.245420 24319 layer_factory.hpp:77] Creating layer relu4_3
I0112 18:20:24.245472 24319 net.cpp:100] Creating Layer relu4_3
I0112 18:20:24.245537 24319 net.cpp:434] relu4_3 <- conv4_3
I0112 18:20:24.245591 24319 net.cpp:395] relu4_3 -> conv4_3 (in-place)
I0112 18:20:24.245630 24319 net.cpp:150] Setting up relu4_3
I0112 18:20:24.245640 24319 net.cpp:157] Top shape: 8 512 40 40 (6553600)
I0112 18:20:24.245646 24319 net.cpp:165] Memory required for data: 1930036256
I0112 18:20:24.245653 24319 layer_factory.hpp:77] Creating layer conv4_3_relu4_3_0_split
I0112 18:20:24.245678 24319 net.cpp:100] Creating Layer conv4_3_relu4_3_0_split
I0112 18:20:24.245688 24319 net.cpp:434] conv4_3_relu4_3_0_split <- conv4_3
I0112 18:20:24.245707 24319 net.cpp:408] conv4_3_relu4_3_0_split -> conv4_3_relu4_3_0_split_0
I0112 18:20:24.245762 24319 net.cpp:408] conv4_3_relu4_3_0_split -> conv4_3_relu4_3_0_split_1
I0112 18:20:24.245842 24319 net.cpp:150] Setting up conv4_3_relu4_3_0_split
I0112 18:20:24.245857 24319 net.cpp:157] Top shape: 8 512 40 40 (6553600)
I0112 18:20:24.245864 24319 net.cpp:157] Top shape: 8 512 40 40 (6553600)
I0112 18:20:24.245869 24319 net.cpp:165] Memory required for data: 1982465056
I0112 18:20:24.245877 24319 layer_factory.hpp:77] Creating layer pool4
I0112 18:20:24.245908 24319 net.cpp:100] Creating Layer pool4
I0112 18:20:24.245918 24319 net.cpp:434] pool4 <- conv4_3_relu4_3_0_split_0
I0112 18:20:24.245940 24319 net.cpp:408] pool4 -> pool4
I0112 18:20:24.245966 24319 net.cpp:408] pool4 -> pool4_mask
I0112 18:20:24.246032 24319 net.cpp:150] Setting up pool4
I0112 18:20:24.246047 24319 net.cpp:157] Top shape: 8 512 20 20 (1638400)
I0112 18:20:24.246053 24319 net.cpp:157] Top shape: 8 512 20 20 (1638400)
I0112 18:20:24.246058 24319 net.cpp:165] Memory required for data: 1995572256
I0112 18:20:24.246073 24319 layer_factory.hpp:77] Creating layer conv5_1
I0112 18:20:24.246122 24319 net.cpp:100] Creating Layer conv5_1
I0112 18:20:24.246134 24319 net.cpp:434] conv5_1 <- pool4
I0112 18:20:24.246162 24319 net.cpp:408] conv5_1 -> conv5_1
I0112 18:20:24.386551 24319 net.cpp:150] Setting up conv5_1
I0112 18:20:24.386605 24319 net.cpp:157] Top shape: 8 512 20 20 (1638400)
I0112 18:20:24.386611 24319 net.cpp:165] Memory required for data: 2002125856
I0112 18:20:24.386651 24319 layer_factory.hpp:77] Creating layer relu5_1
I0112 18:20:24.386699 24319 net.cpp:100] Creating Layer relu5_1
I0112 18:20:24.386721 24319 net.cpp:434] relu5_1 <- conv5_1
I0112 18:20:24.386759 24319 net.cpp:395] relu5_1 -> conv5_1 (in-place)
I0112 18:20:24.386793 24319 net.cpp:150] Setting up relu5_1
I0112 18:20:24.386803 24319 net.cpp:157] Top shape: 8 512 20 20 (1638400)
I0112 18:20:24.386809 24319 net.cpp:165] Memory required for data: 2008679456
I0112 18:20:24.386816 24319 layer_factory.hpp:77] Creating layer conv5_2
I0112 18:20:24.386868 24319 net.cpp:100] Creating Layer conv5_2
I0112 18:20:24.386878 24319 net.cpp:434] conv5_2 <- conv5_1
I0112 18:20:24.386905 24319 net.cpp:408] conv5_2 -> conv5_2
I0112 18:20:24.527070 24319 net.cpp:150] Setting up conv5_2
I0112 18:20:24.527117 24319 net.cpp:157] Top shape: 8 512 20 20 (1638400)
I0112 18:20:24.527123 24319 net.cpp:165] Memory required for data: 2015233056
I0112 18:20:24.527175 24319 layer_factory.hpp:77] Creating layer relu5_2
I0112 18:20:24.527231 24319 net.cpp:100] Creating Layer relu5_2
I0112 18:20:24.527251 24319 net.cpp:434] relu5_2 <- conv5_2
I0112 18:20:24.527287 24319 net.cpp:395] relu5_2 -> conv5_2 (in-place)
I0112 18:20:24.527321 24319 net.cpp:150] Setting up relu5_2
I0112 18:20:24.527331 24319 net.cpp:157] Top shape: 8 512 20 20 (1638400)
I0112 18:20:24.527338 24319 net.cpp:165] Memory required for data: 2021786656
I0112 18:20:24.527345 24319 layer_factory.hpp:77] Creating layer conv5_3
I0112 18:20:24.527389 24319 net.cpp:100] Creating Layer conv5_3
I0112 18:20:24.527400 24319 net.cpp:434] conv5_3 <- conv5_2
I0112 18:20:24.527423 24319 net.cpp:408] conv5_3 -> conv5_3
I0112 18:20:24.667848 24319 net.cpp:150] Setting up conv5_3
I0112 18:20:24.667894 24319 net.cpp:157] Top shape: 8 512 20 20 (1638400)
I0112 18:20:24.667901 24319 net.cpp:165] Memory required for data: 2028340256
I0112 18:20:24.667937 24319 layer_factory.hpp:77] Creating layer relu5_3
I0112 18:20:24.667978 24319 net.cpp:100] Creating Layer relu5_3
I0112 18:20:24.667999 24319 net.cpp:434] relu5_3 <- conv5_3
I0112 18:20:24.668032 24319 net.cpp:395] relu5_3 -> conv5_3 (in-place)
I0112 18:20:24.668066 24319 net.cpp:150] Setting up relu5_3
I0112 18:20:24.668076 24319 net.cpp:157] Top shape: 8 512 20 20 (1638400)
I0112 18:20:24.668081 24319 net.cpp:165] Memory required for data: 2034893856
I0112 18:20:24.668088 24319 layer_factory.hpp:77] Creating layer conv5_3_relu5_3_0_split
I0112 18:20:24.668119 24319 net.cpp:100] Creating Layer conv5_3_relu5_3_0_split
I0112 18:20:24.668150 24319 net.cpp:434] conv5_3_relu5_3_0_split <- conv5_3
I0112 18:20:24.668174 24319 net.cpp:408] conv5_3_relu5_3_0_split -> conv5_3_relu5_3_0_split_0
I0112 18:20:24.668200 24319 net.cpp:408] conv5_3_relu5_3_0_split -> conv5_3_relu5_3_0_split_1
I0112 18:20:24.668263 24319 net.cpp:150] Setting up conv5_3_relu5_3_0_split
I0112 18:20:24.668279 24319 net.cpp:157] Top shape: 8 512 20 20 (1638400)
I0112 18:20:24.668287 24319 net.cpp:157] Top shape: 8 512 20 20 (1638400)
I0112 18:20:24.668292 24319 net.cpp:165] Memory required for data: 2048001056
I0112 18:20:24.668299 24319 layer_factory.hpp:77] Creating layer pool5
I0112 18:20:24.668344 24319 net.cpp:100] Creating Layer pool5
I0112 18:20:24.668355 24319 net.cpp:434] pool5 <- conv5_3_relu5_3_0_split_0
I0112 18:20:24.668380 24319 net.cpp:408] pool5 -> pool5
I0112 18:20:24.668404 24319 net.cpp:408] pool5 -> pool5_mask
I0112 18:20:24.668465 24319 net.cpp:150] Setting up pool5
I0112 18:20:24.668486 24319 net.cpp:157] Top shape: 8 512 10 10 (409600)
I0112 18:20:24.668494 24319 net.cpp:157] Top shape: 8 512 10 10 (409600)
I0112 18:20:24.668501 24319 net.cpp:165] Memory required for data: 2051277856
I0112 18:20:24.668507 24319 layer_factory.hpp:77] Creating layer fc6
I0112 18:20:24.668545 24319 net.cpp:100] Creating Layer fc6
I0112 18:20:24.668558 24319 net.cpp:434] fc6 <- pool5
I0112 18:20:24.668583 24319 net.cpp:408] fc6 -> fc6
I0112 18:20:24.801770 24327 bbox_seg_data_layer.cpp:339] Prefetch batch: 1069 ms.
I0112 18:20:24.801846 24327 bbox_seg_data_layer.cpp:340]      Read time: 0.792 ms.
I0112 18:20:24.801854 24327 bbox_seg_data_layer.cpp:341] Transform time: 1061 ms.
I0112 18:20:24.950609 24319 net.cpp:150] Setting up fc6
I0112 18:20:24.950670 24319 net.cpp:157] Top shape: 8 1024 10 10 (819200)
I0112 18:20:24.950675 24319 net.cpp:165] Memory required for data: 2054554656
I0112 18:20:24.950711 24319 layer_factory.hpp:77] Creating layer relu6
I0112 18:20:24.950758 24319 net.cpp:100] Creating Layer relu6
I0112 18:20:24.950780 24319 net.cpp:434] relu6 <- fc6
I0112 18:20:24.950819 24319 net.cpp:395] relu6 -> fc6 (in-place)
I0112 18:20:24.950853 24319 net.cpp:150] Setting up relu6
I0112 18:20:24.950863 24319 net.cpp:157] Top shape: 8 1024 10 10 (819200)
I0112 18:20:24.950873 24319 net.cpp:165] Memory required for data: 2057831456
I0112 18:20:24.950881 24319 layer_factory.hpp:77] Creating layer fc7
I0112 18:20:24.950919 24319 net.cpp:100] Creating Layer fc7
I0112 18:20:24.950930 24319 net.cpp:434] fc7 <- fc6
I0112 18:20:24.950953 24319 net.cpp:408] fc7 -> fc7
I0112 18:20:25.014051 24319 net.cpp:150] Setting up fc7
I0112 18:20:25.014111 24319 net.cpp:157] Top shape: 8 1024 10 10 (819200)
I0112 18:20:25.014119 24319 net.cpp:165] Memory required for data: 2061108256
I0112 18:20:25.014155 24319 layer_factory.hpp:77] Creating layer relu7
I0112 18:20:25.014200 24319 net.cpp:100] Creating Layer relu7
I0112 18:20:25.014230 24319 net.cpp:434] relu7 <- fc7
I0112 18:20:25.014267 24319 net.cpp:395] relu7 -> fc7 (in-place)
I0112 18:20:25.014300 24319 net.cpp:150] Setting up relu7
I0112 18:20:25.014310 24319 net.cpp:157] Top shape: 8 1024 10 10 (819200)
I0112 18:20:25.014317 24319 net.cpp:165] Memory required for data: 2064385056
I0112 18:20:25.014322 24319 layer_factory.hpp:77] Creating layer fc7_relu7_0_split
I0112 18:20:25.014338 24319 net.cpp:100] Creating Layer fc7_relu7_0_split
I0112 18:20:25.014346 24319 net.cpp:434] fc7_relu7_0_split <- fc7
I0112 18:20:25.014366 24319 net.cpp:408] fc7_relu7_0_split -> fc7_relu7_0_split_0
I0112 18:20:25.014397 24319 net.cpp:408] fc7_relu7_0_split -> fc7_relu7_0_split_1
I0112 18:20:25.014478 24319 net.cpp:150] Setting up fc7_relu7_0_split
I0112 18:20:25.014497 24319 net.cpp:157] Top shape: 8 1024 10 10 (819200)
I0112 18:20:25.014508 24319 net.cpp:157] Top shape: 8 1024 10 10 (819200)
I0112 18:20:25.014516 24319 net.cpp:165] Memory required for data: 2070938656
I0112 18:20:25.014529 24319 layer_factory.hpp:77] Creating layer conv6_1
I0112 18:20:25.014576 24319 net.cpp:100] Creating Layer conv6_1
I0112 18:20:25.014590 24319 net.cpp:434] conv6_1 <- fc7_relu7_0_split_0
I0112 18:20:25.014654 24319 net.cpp:408] conv6_1 -> conv6_1
I0112 18:20:25.032512 24319 net.cpp:150] Setting up conv6_1
I0112 18:20:25.032557 24319 net.cpp:157] Top shape: 8 256 10 10 (204800)
I0112 18:20:25.032564 24319 net.cpp:165] Memory required for data: 2071757856
I0112 18:20:25.032593 24319 layer_factory.hpp:77] Creating layer conv6_1_relu
I0112 18:20:25.032629 24319 net.cpp:100] Creating Layer conv6_1_relu
I0112 18:20:25.032647 24319 net.cpp:434] conv6_1_relu <- conv6_1
I0112 18:20:25.032675 24319 net.cpp:395] conv6_1_relu -> conv6_1 (in-place)
I0112 18:20:25.032703 24319 net.cpp:150] Setting up conv6_1_relu
I0112 18:20:25.032712 24319 net.cpp:157] Top shape: 8 256 10 10 (204800)
I0112 18:20:25.032718 24319 net.cpp:165] Memory required for data: 2072577056
I0112 18:20:25.032724 24319 layer_factory.hpp:77] Creating layer conv6_2
I0112 18:20:25.032761 24319 net.cpp:100] Creating Layer conv6_2
I0112 18:20:25.032773 24319 net.cpp:434] conv6_2 <- conv6_1
I0112 18:20:25.032797 24319 net.cpp:408] conv6_2 -> conv6_2
I0112 18:20:25.103320 24319 net.cpp:150] Setting up conv6_2
I0112 18:20:25.103382 24319 net.cpp:157] Top shape: 8 512 5 5 (102400)
I0112 18:20:25.103387 24319 net.cpp:165] Memory required for data: 2072986656
I0112 18:20:25.103471 24319 layer_factory.hpp:77] Creating layer conv6_2_relu
I0112 18:20:25.103518 24319 net.cpp:100] Creating Layer conv6_2_relu
I0112 18:20:25.103541 24319 net.cpp:434] conv6_2_relu <- conv6_2
I0112 18:20:25.103569 24319 net.cpp:395] conv6_2_relu -> conv6_2 (in-place)
I0112 18:20:25.103602 24319 net.cpp:150] Setting up conv6_2_relu
I0112 18:20:25.103612 24319 net.cpp:157] Top shape: 8 512 5 5 (102400)
I0112 18:20:25.103621 24319 net.cpp:165] Memory required for data: 2073396256
I0112 18:20:25.103626 24319 layer_factory.hpp:77] Creating layer TL6_1
I0112 18:20:25.103664 24319 net.cpp:100] Creating Layer TL6_1
I0112 18:20:25.103675 24319 net.cpp:434] TL6_1 <- conv6_2
I0112 18:20:25.103700 24319 net.cpp:408] TL6_1 -> TL6_1
I0112 18:20:25.176231 24319 net.cpp:150] Setting up TL6_1
I0112 18:20:25.176259 24319 net.cpp:157] Top shape: 8 256 5 5 (51200)
I0112 18:20:25.176264 24319 net.cpp:165] Memory required for data: 2073601056
I0112 18:20:25.176282 24319 layer_factory.hpp:77] Creating layer TL6_1_relu
I0112 18:20:25.176304 24319 net.cpp:100] Creating Layer TL6_1_relu
I0112 18:20:25.176314 24319 net.cpp:434] TL6_1_relu <- TL6_1
I0112 18:20:25.176342 24319 net.cpp:395] TL6_1_relu -> TL6_1 (in-place)
I0112 18:20:25.176363 24319 net.cpp:150] Setting up TL6_1_relu
I0112 18:20:25.176373 24319 net.cpp:157] Top shape: 8 256 5 5 (51200)
I0112 18:20:25.176380 24319 net.cpp:165] Memory required for data: 2073805856
I0112 18:20:25.176386 24319 layer_factory.hpp:77] Creating layer TL6_2
I0112 18:20:25.176417 24319 net.cpp:100] Creating Layer TL6_2
I0112 18:20:25.176429 24319 net.cpp:434] TL6_2 <- TL6_1
I0112 18:20:25.176453 24319 net.cpp:408] TL6_2 -> TL6_2
I0112 18:20:25.211875 24319 net.cpp:150] Setting up TL6_2
I0112 18:20:25.211915 24319 net.cpp:157] Top shape: 8 256 5 5 (51200)
I0112 18:20:25.211920 24319 net.cpp:165] Memory required for data: 2074010656
I0112 18:20:25.211948 24319 layer_factory.hpp:77] Creating layer TL6_2_relu
I0112 18:20:25.211979 24319 net.cpp:100] Creating Layer TL6_2_relu
I0112 18:20:25.211994 24319 net.cpp:434] TL6_2_relu <- TL6_2
I0112 18:20:25.212020 24319 net.cpp:395] TL6_2_relu -> TL6_2 (in-place)
I0112 18:20:25.212046 24319 net.cpp:150] Setting up TL6_2_relu
I0112 18:20:25.212056 24319 net.cpp:157] Top shape: 8 256 5 5 (51200)
I0112 18:20:25.212064 24319 net.cpp:165] Memory required for data: 2074215456
I0112 18:20:25.212070 24319 layer_factory.hpp:77] Creating layer P6
I0112 18:20:25.212110 24319 net.cpp:100] Creating Layer P6
I0112 18:20:25.212126 24319 net.cpp:434] P6 <- TL6_2
I0112 18:20:25.212154 24319 net.cpp:408] P6 -> P6
I0112 18:20:25.247793 24319 net.cpp:150] Setting up P6
I0112 18:20:25.247843 24319 net.cpp:157] Top shape: 8 256 5 5 (51200)
I0112 18:20:25.247849 24319 net.cpp:165] Memory required for data: 2074420256
I0112 18:20:25.247884 24319 layer_factory.hpp:77] Creating layer P6_relu
I0112 18:20:25.247957 24319 net.cpp:100] Creating Layer P6_relu
I0112 18:20:25.247977 24319 net.cpp:434] P6_relu <- P6
I0112 18:20:25.248010 24319 net.cpp:395] P6_relu -> P6 (in-place)
I0112 18:20:25.248041 24319 net.cpp:150] Setting up P6_relu
I0112 18:20:25.248052 24319 net.cpp:157] Top shape: 8 256 5 5 (51200)
I0112 18:20:25.248059 24319 net.cpp:165] Memory required for data: 2074625056
I0112 18:20:25.248065 24319 layer_factory.hpp:77] Creating layer P6_P6_relu_0_split
I0112 18:20:25.248083 24319 net.cpp:100] Creating Layer P6_P6_relu_0_split
I0112 18:20:25.248091 24319 net.cpp:434] P6_P6_relu_0_split <- P6
I0112 18:20:25.248111 24319 net.cpp:408] P6_P6_relu_0_split -> P6_P6_relu_0_split_0
I0112 18:20:25.248137 24319 net.cpp:408] P6_P6_relu_0_split -> P6_P6_relu_0_split_1
I0112 18:20:25.248200 24319 net.cpp:150] Setting up P6_P6_relu_0_split
I0112 18:20:25.248214 24319 net.cpp:157] Top shape: 8 256 5 5 (51200)
I0112 18:20:25.248221 24319 net.cpp:157] Top shape: 8 256 5 5 (51200)
I0112 18:20:25.248226 24319 net.cpp:165] Memory required for data: 2075034656
I0112 18:20:25.248232 24319 layer_factory.hpp:77] Creating layer TL5_1
I0112 18:20:25.248270 24319 net.cpp:100] Creating Layer TL5_1
I0112 18:20:25.248283 24319 net.cpp:434] TL5_1 <- fc7_relu7_0_split_1
I0112 18:20:25.248309 24319 net.cpp:408] TL5_1 -> TL5_1
I0112 18:20:25.388221 24319 net.cpp:150] Setting up TL5_1
I0112 18:20:25.388280 24319 net.cpp:157] Top shape: 8 256 10 10 (204800)
I0112 18:20:25.388286 24319 net.cpp:165] Memory required for data: 2075853856
I0112 18:20:25.388324 24319 layer_factory.hpp:77] Creating layer TL5_1_relu
I0112 18:20:25.388370 24319 net.cpp:100] Creating Layer TL5_1_relu
I0112 18:20:25.388393 24319 net.cpp:434] TL5_1_relu <- TL5_1
I0112 18:20:25.388430 24319 net.cpp:395] TL5_1_relu -> TL5_1 (in-place)
I0112 18:20:25.388463 24319 net.cpp:150] Setting up TL5_1_relu
I0112 18:20:25.388473 24319 net.cpp:157] Top shape: 8 256 10 10 (204800)
I0112 18:20:25.388481 24319 net.cpp:165] Memory required for data: 2076673056
I0112 18:20:25.388489 24319 layer_factory.hpp:77] Creating layer TL5_2
I0112 18:20:25.388525 24319 net.cpp:100] Creating Layer TL5_2
I0112 18:20:25.388535 24319 net.cpp:434] TL5_2 <- TL5_1
I0112 18:20:25.388561 24319 net.cpp:408] TL5_2 -> TL5_2
I0112 18:20:25.423938 24319 net.cpp:150] Setting up TL5_2
I0112 18:20:25.423959 24319 net.cpp:157] Top shape: 8 256 10 10 (204800)
I0112 18:20:25.423965 24319 net.cpp:165] Memory required for data: 2077492256
I0112 18:20:25.423982 24319 layer_factory.hpp:77] Creating layer P6-up
I0112 18:20:25.424019 24319 net.cpp:100] Creating Layer P6-up
I0112 18:20:25.424031 24319 net.cpp:434] P6-up <- P6_P6_relu_0_split_0
I0112 18:20:25.424057 24319 net.cpp:408] P6-up -> P6-up
I0112 18:20:25.439339 24319 net.cpp:150] Setting up P6-up
I0112 18:20:25.439357 24319 net.cpp:157] Top shape: 8 256 10 10 (204800)
I0112 18:20:25.439363 24319 net.cpp:165] Memory required for data: 2078311456
I0112 18:20:25.439380 24319 layer_factory.hpp:77] Creating layer Elt5
I0112 18:20:25.439404 24319 net.cpp:100] Creating Layer Elt5
I0112 18:20:25.439415 24319 net.cpp:434] Elt5 <- TL5_2
I0112 18:20:25.439432 24319 net.cpp:434] Elt5 <- P6-up
I0112 18:20:25.439450 24319 net.cpp:408] Elt5 -> Elt5
I0112 18:20:25.439515 24319 net.cpp:150] Setting up Elt5
I0112 18:20:25.439529 24319 net.cpp:157] Top shape: 8 256 10 10 (204800)
I0112 18:20:25.439535 24319 net.cpp:165] Memory required for data: 2079130656
I0112 18:20:25.439543 24319 layer_factory.hpp:77] Creating layer Elt5_relu
I0112 18:20:25.439563 24319 net.cpp:100] Creating Layer Elt5_relu
I0112 18:20:25.439573 24319 net.cpp:434] Elt5_relu <- Elt5
I0112 18:20:25.439589 24319 net.cpp:395] Elt5_relu -> Elt5 (in-place)
I0112 18:20:25.439607 24319 net.cpp:150] Setting up Elt5_relu
I0112 18:20:25.439616 24319 net.cpp:157] Top shape: 8 256 10 10 (204800)
I0112 18:20:25.439622 24319 net.cpp:165] Memory required for data: 2079949856
I0112 18:20:25.439627 24319 layer_factory.hpp:77] Creating layer P5
I0112 18:20:25.439656 24319 net.cpp:100] Creating Layer P5
I0112 18:20:25.439697 24319 net.cpp:434] P5 <- Elt5
I0112 18:20:25.439724 24319 net.cpp:408] P5 -> P5
I0112 18:20:25.475157 24319 net.cpp:150] Setting up P5
I0112 18:20:25.475212 24319 net.cpp:157] Top shape: 8 256 10 10 (204800)
I0112 18:20:25.475219 24319 net.cpp:165] Memory required for data: 2080769056
I0112 18:20:25.475253 24319 layer_factory.hpp:77] Creating layer P5_relu
I0112 18:20:25.475297 24319 net.cpp:100] Creating Layer P5_relu
I0112 18:20:25.475318 24319 net.cpp:434] P5_relu <- P5
I0112 18:20:25.475352 24319 net.cpp:395] P5_relu -> P5 (in-place)
I0112 18:20:25.475383 24319 net.cpp:150] Setting up P5_relu
I0112 18:20:25.475392 24319 net.cpp:157] Top shape: 8 256 10 10 (204800)
I0112 18:20:25.475397 24319 net.cpp:165] Memory required for data: 2081588256
I0112 18:20:25.475405 24319 layer_factory.hpp:77] Creating layer P5_P5_relu_0_split
I0112 18:20:25.475423 24319 net.cpp:100] Creating Layer P5_P5_relu_0_split
I0112 18:20:25.475432 24319 net.cpp:434] P5_P5_relu_0_split <- P5
I0112 18:20:25.475450 24319 net.cpp:408] P5_P5_relu_0_split -> P5_P5_relu_0_split_0
I0112 18:20:25.475474 24319 net.cpp:408] P5_P5_relu_0_split -> P5_P5_relu_0_split_1
I0112 18:20:25.475541 24319 net.cpp:150] Setting up P5_P5_relu_0_split
I0112 18:20:25.475555 24319 net.cpp:157] Top shape: 8 256 10 10 (204800)
I0112 18:20:25.475563 24319 net.cpp:157] Top shape: 8 256 10 10 (204800)
I0112 18:20:25.475567 24319 net.cpp:165] Memory required for data: 2083226656
I0112 18:20:25.475574 24319 layer_factory.hpp:77] Creating layer conv5_3_norm
I0112 18:20:25.475605 24319 net.cpp:100] Creating Layer conv5_3_norm
I0112 18:20:25.475620 24319 net.cpp:434] conv5_3_norm <- conv5_3_relu5_3_0_split_1
I0112 18:20:25.475641 24319 net.cpp:408] conv5_3_norm -> conv5_3_norm
I0112 18:20:25.475864 24319 net.cpp:150] Setting up conv5_3_norm
I0112 18:20:25.475880 24319 net.cpp:157] Top shape: 8 512 20 20 (1638400)
I0112 18:20:25.475885 24319 net.cpp:165] Memory required for data: 2089780256
I0112 18:20:25.475899 24319 layer_factory.hpp:77] Creating layer TL4_1
I0112 18:20:25.475937 24319 net.cpp:100] Creating Layer TL4_1
I0112 18:20:25.475950 24319 net.cpp:434] TL4_1 <- conv5_3_norm
I0112 18:20:25.475975 24319 net.cpp:408] TL4_1 -> TL4_1
I0112 18:20:25.546370 24319 net.cpp:150] Setting up TL4_1
I0112 18:20:25.546428 24319 net.cpp:157] Top shape: 8 256 20 20 (819200)
I0112 18:20:25.546433 24319 net.cpp:165] Memory required for data: 2093057056
I0112 18:20:25.546470 24319 layer_factory.hpp:77] Creating layer TL4_1_relu
I0112 18:20:25.546555 24319 net.cpp:100] Creating Layer TL4_1_relu
I0112 18:20:25.546576 24319 net.cpp:434] TL4_1_relu <- TL4_1
I0112 18:20:25.546613 24319 net.cpp:395] TL4_1_relu -> TL4_1 (in-place)
I0112 18:20:25.546646 24319 net.cpp:150] Setting up TL4_1_relu
I0112 18:20:25.546656 24319 net.cpp:157] Top shape: 8 256 20 20 (819200)
I0112 18:20:25.546664 24319 net.cpp:165] Memory required for data: 2096333856
I0112 18:20:25.546674 24319 layer_factory.hpp:77] Creating layer TL4_2
I0112 18:20:25.546715 24319 net.cpp:100] Creating Layer TL4_2
I0112 18:20:25.546725 24319 net.cpp:434] TL4_2 <- TL4_1
I0112 18:20:25.546748 24319 net.cpp:408] TL4_2 -> TL4_2
I0112 18:20:25.582556 24319 net.cpp:150] Setting up TL4_2
I0112 18:20:25.582615 24319 net.cpp:157] Top shape: 8 256 20 20 (819200)
I0112 18:20:25.582623 24319 net.cpp:165] Memory required for data: 2099610656
I0112 18:20:25.582659 24319 layer_factory.hpp:77] Creating layer P5-up
I0112 18:20:25.582725 24319 net.cpp:100] Creating Layer P5-up
I0112 18:20:25.582746 24319 net.cpp:434] P5-up <- P5_P5_relu_0_split_0
I0112 18:20:25.582790 24319 net.cpp:408] P5-up -> P5-up
I0112 18:20:25.599745 24319 net.cpp:150] Setting up P5-up
I0112 18:20:25.599802 24319 net.cpp:157] Top shape: 8 256 20 20 (819200)
I0112 18:20:25.599808 24319 net.cpp:165] Memory required for data: 2102887456
I0112 18:20:25.599843 24319 layer_factory.hpp:77] Creating layer Elt4
I0112 18:20:25.599886 24319 net.cpp:100] Creating Layer Elt4
I0112 18:20:25.599907 24319 net.cpp:434] Elt4 <- TL4_2
I0112 18:20:25.599937 24319 net.cpp:434] Elt4 <- P5-up
I0112 18:20:25.599990 24319 net.cpp:408] Elt4 -> Elt4
I0112 18:20:25.600067 24319 net.cpp:150] Setting up Elt4
I0112 18:20:25.600082 24319 net.cpp:157] Top shape: 8 256 20 20 (819200)
I0112 18:20:25.600087 24319 net.cpp:165] Memory required for data: 2106164256
I0112 18:20:25.600095 24319 layer_factory.hpp:77] Creating layer Elt4_relu
I0112 18:20:25.600117 24319 net.cpp:100] Creating Layer Elt4_relu
I0112 18:20:25.600127 24319 net.cpp:434] Elt4_relu <- Elt4
I0112 18:20:25.600145 24319 net.cpp:395] Elt4_relu -> Elt4 (in-place)
I0112 18:20:25.600164 24319 net.cpp:150] Setting up Elt4_relu
I0112 18:20:25.600173 24319 net.cpp:157] Top shape: 8 256 20 20 (819200)
I0112 18:20:25.600178 24319 net.cpp:165] Memory required for data: 2109441056
I0112 18:20:25.600184 24319 layer_factory.hpp:77] Creating layer P4
I0112 18:20:25.600224 24319 net.cpp:100] Creating Layer P4
I0112 18:20:25.600235 24319 net.cpp:434] P4 <- Elt4
I0112 18:20:25.600260 24319 net.cpp:408] P4 -> P4
I0112 18:20:25.636173 24319 net.cpp:150] Setting up P4
I0112 18:20:25.636229 24319 net.cpp:157] Top shape: 8 256 20 20 (819200)
I0112 18:20:25.636234 24319 net.cpp:165] Memory required for data: 2112717856
I0112 18:20:25.636270 24319 layer_factory.hpp:77] Creating layer P4_relu
I0112 18:20:25.636335 24319 net.cpp:100] Creating Layer P4_relu
I0112 18:20:25.636358 24319 net.cpp:434] P4_relu <- P4
I0112 18:20:25.636392 24319 net.cpp:395] P4_relu -> P4 (in-place)
I0112 18:20:25.636425 24319 net.cpp:150] Setting up P4_relu
I0112 18:20:25.636435 24319 net.cpp:157] Top shape: 8 256 20 20 (819200)
I0112 18:20:25.636442 24319 net.cpp:165] Memory required for data: 2115994656
I0112 18:20:25.636449 24319 layer_factory.hpp:77] Creating layer P4_P4_relu_0_split
I0112 18:20:25.636466 24319 net.cpp:100] Creating Layer P4_P4_relu_0_split
I0112 18:20:25.636473 24319 net.cpp:434] P4_P4_relu_0_split <- P4
I0112 18:20:25.636492 24319 net.cpp:408] P4_P4_relu_0_split -> P4_P4_relu_0_split_0
I0112 18:20:25.636518 24319 net.cpp:408] P4_P4_relu_0_split -> P4_P4_relu_0_split_1
I0112 18:20:25.636595 24319 net.cpp:150] Setting up P4_P4_relu_0_split
I0112 18:20:25.636610 24319 net.cpp:157] Top shape: 8 256 20 20 (819200)
I0112 18:20:25.636617 24319 net.cpp:157] Top shape: 8 256 20 20 (819200)
I0112 18:20:25.636622 24319 net.cpp:165] Memory required for data: 2122548256
I0112 18:20:25.636629 24319 layer_factory.hpp:77] Creating layer conv4_3_norm
I0112 18:20:25.636657 24319 net.cpp:100] Creating Layer conv4_3_norm
I0112 18:20:25.636670 24319 net.cpp:434] conv4_3_norm <- conv4_3_relu4_3_0_split_1
I0112 18:20:25.636690 24319 net.cpp:408] conv4_3_norm -> conv4_3_norm
I0112 18:20:25.636921 24319 net.cpp:150] Setting up conv4_3_norm
I0112 18:20:25.636937 24319 net.cpp:157] Top shape: 8 512 40 40 (6553600)
I0112 18:20:25.636942 24319 net.cpp:165] Memory required for data: 2148762656
I0112 18:20:25.636956 24319 layer_factory.hpp:77] Creating layer TL3_1
I0112 18:20:25.636994 24319 net.cpp:100] Creating Layer TL3_1
I0112 18:20:25.637006 24319 net.cpp:434] TL3_1 <- conv4_3_norm
I0112 18:20:25.637033 24319 net.cpp:408] TL3_1 -> TL3_1
I0112 18:20:25.708293 24319 net.cpp:150] Setting up TL3_1
I0112 18:20:25.708359 24319 net.cpp:157] Top shape: 8 256 40 40 (3276800)
I0112 18:20:25.708364 24319 net.cpp:165] Memory required for data: 2161869856
I0112 18:20:25.708400 24319 layer_factory.hpp:77] Creating layer TL3_1_relu
I0112 18:20:25.708446 24319 net.cpp:100] Creating Layer TL3_1_relu
I0112 18:20:25.708472 24319 net.cpp:434] TL3_1_relu <- TL3_1
I0112 18:20:25.708505 24319 net.cpp:395] TL3_1_relu -> TL3_1 (in-place)
I0112 18:20:25.708539 24319 net.cpp:150] Setting up TL3_1_relu
I0112 18:20:25.708549 24319 net.cpp:157] Top shape: 8 256 40 40 (3276800)
I0112 18:20:25.708554 24319 net.cpp:165] Memory required for data: 2174977056
I0112 18:20:25.708564 24319 layer_factory.hpp:77] Creating layer TL3_2
I0112 18:20:25.708604 24319 net.cpp:100] Creating Layer TL3_2
I0112 18:20:25.708616 24319 net.cpp:434] TL3_2 <- TL3_1
I0112 18:20:25.708642 24319 net.cpp:408] TL3_2 -> TL3_2
I0112 18:20:25.744618 24319 net.cpp:150] Setting up TL3_2
I0112 18:20:25.744711 24319 net.cpp:157] Top shape: 8 256 40 40 (3276800)
I0112 18:20:25.744716 24319 net.cpp:165] Memory required for data: 2188084256
I0112 18:20:25.744753 24319 layer_factory.hpp:77] Creating layer P4-up
I0112 18:20:25.744823 24319 net.cpp:100] Creating Layer P4-up
I0112 18:20:25.744845 24319 net.cpp:434] P4-up <- P4_P4_relu_0_split_0
I0112 18:20:25.744889 24319 net.cpp:408] P4-up -> P4-up
I0112 18:20:25.760435 24319 net.cpp:150] Setting up P4-up
I0112 18:20:25.760491 24319 net.cpp:157] Top shape: 8 256 40 40 (3276800)
I0112 18:20:25.760498 24319 net.cpp:165] Memory required for data: 2201191456
I0112 18:20:25.760531 24319 layer_factory.hpp:77] Creating layer Elt3
I0112 18:20:25.760581 24319 net.cpp:100] Creating Layer Elt3
I0112 18:20:25.760601 24319 net.cpp:434] Elt3 <- TL3_2
I0112 18:20:25.760630 24319 net.cpp:434] Elt3 <- P4-up
I0112 18:20:25.760648 24319 net.cpp:408] Elt3 -> Elt3
I0112 18:20:25.760726 24319 net.cpp:150] Setting up Elt3
I0112 18:20:25.760741 24319 net.cpp:157] Top shape: 8 256 40 40 (3276800)
I0112 18:20:25.760747 24319 net.cpp:165] Memory required for data: 2214298656
I0112 18:20:25.760756 24319 layer_factory.hpp:77] Creating layer Elt3_relu
I0112 18:20:25.760777 24319 net.cpp:100] Creating Layer Elt3_relu
I0112 18:20:25.760787 24319 net.cpp:434] Elt3_relu <- Elt3
I0112 18:20:25.760805 24319 net.cpp:395] Elt3_relu -> Elt3 (in-place)
I0112 18:20:25.760824 24319 net.cpp:150] Setting up Elt3_relu
I0112 18:20:25.760833 24319 net.cpp:157] Top shape: 8 256 40 40 (3276800)
I0112 18:20:25.760838 24319 net.cpp:165] Memory required for data: 2227405856
I0112 18:20:25.760845 24319 layer_factory.hpp:77] Creating layer P3
I0112 18:20:25.760885 24319 net.cpp:100] Creating Layer P3
I0112 18:20:25.760895 24319 net.cpp:434] P3 <- Elt3
I0112 18:20:25.760920 24319 net.cpp:408] P3 -> P3
I0112 18:20:25.796965 24319 net.cpp:150] Setting up P3
I0112 18:20:25.797030 24319 net.cpp:157] Top shape: 8 256 40 40 (3276800)
I0112 18:20:25.797035 24319 net.cpp:165] Memory required for data: 2240513056
I0112 18:20:25.797121 24319 layer_factory.hpp:77] Creating layer P3_relu
I0112 18:20:25.797164 24319 net.cpp:100] Creating Layer P3_relu
I0112 18:20:25.797186 24319 net.cpp:434] P3_relu <- P3
I0112 18:20:25.797214 24319 net.cpp:395] P3_relu -> P3 (in-place)
I0112 18:20:25.797245 24319 net.cpp:150] Setting up P3_relu
I0112 18:20:25.797255 24319 net.cpp:157] Top shape: 8 256 40 40 (3276800)
I0112 18:20:25.797262 24319 net.cpp:165] Memory required for data: 2253620256
I0112 18:20:25.797268 24319 layer_factory.hpp:77] Creating layer conv6_2_crop
I0112 18:20:25.797296 24319 net.cpp:100] Creating Layer conv6_2_crop
I0112 18:20:25.797307 24319 net.cpp:434] conv6_2_crop <- P6_P6_relu_0_split_1
I0112 18:20:25.797322 24319 net.cpp:434] conv6_2_crop <- cls_specific_bbox_cls_specific_bbox_0_split_0
I0112 18:20:25.797343 24319 net.cpp:408] conv6_2_crop -> conv6_2_crop
I0112 18:20:25.797422 24319 net.cpp:150] Setting up conv6_2_crop
I0112 18:20:25.797436 24319 net.cpp:157] Top shape: 8 256 5 5 (51200)
I0112 18:20:25.797442 24319 net.cpp:165] Memory required for data: 2253825056
I0112 18:20:25.797453 24319 layer_factory.hpp:77] Creating layer deconv6_2
I0112 18:20:25.797490 24319 net.cpp:100] Creating Layer deconv6_2
I0112 18:20:25.797502 24319 net.cpp:434] deconv6_2 <- conv6_2_crop
I0112 18:20:25.797528 24319 net.cpp:408] deconv6_2 -> deconv6_2
I0112 18:20:25.854820 24319 net.cpp:150] Setting up deconv6_2
I0112 18:20:25.854881 24319 net.cpp:157] Top shape: 8 256 10 10 (204800)
I0112 18:20:25.854887 24319 net.cpp:165] Memory required for data: 2254644256
I0112 18:20:25.854923 24319 layer_factory.hpp:77] Creating layer deconv6_2_bn
I0112 18:20:25.854979 24319 net.cpp:100] Creating Layer deconv6_2_bn
I0112 18:20:25.855002 24319 net.cpp:434] deconv6_2_bn <- deconv6_2
I0112 18:20:25.855037 24319 net.cpp:395] deconv6_2_bn -> deconv6_2 (in-place)
I0112 18:20:25.855319 24319 net.cpp:150] Setting up deconv6_2_bn
I0112 18:20:25.855334 24319 net.cpp:157] Top shape: 8 256 10 10 (204800)
I0112 18:20:25.855337 24319 net.cpp:165] Memory required for data: 2255463456
I0112 18:20:25.855393 24319 layer_factory.hpp:77] Creating layer deconv6_2_scale
I0112 18:20:25.855429 24319 net.cpp:100] Creating Layer deconv6_2_scale
I0112 18:20:25.855440 24319 net.cpp:434] deconv6_2_scale <- deconv6_2
I0112 18:20:25.855460 24319 net.cpp:395] deconv6_2_scale -> deconv6_2 (in-place)
I0112 18:20:25.855558 24319 layer_factory.hpp:77] Creating layer deconv6_2_scale
I0112 18:20:25.855748 24319 net.cpp:150] Setting up deconv6_2_scale
I0112 18:20:25.855762 24319 net.cpp:157] Top shape: 8 256 10 10 (204800)
I0112 18:20:25.855767 24319 net.cpp:165] Memory required for data: 2256282656
I0112 18:20:25.855785 24319 layer_factory.hpp:77] Creating layer deconv6_2_relu
I0112 18:20:25.855804 24319 net.cpp:100] Creating Layer deconv6_2_relu
I0112 18:20:25.855814 24319 net.cpp:434] deconv6_2_relu <- deconv6_2
I0112 18:20:25.855834 24319 net.cpp:395] deconv6_2_relu -> deconv6_2 (in-place)
I0112 18:20:25.855854 24319 net.cpp:150] Setting up deconv6_2_relu
I0112 18:20:25.855865 24319 net.cpp:157] Top shape: 8 256 10 10 (204800)
I0112 18:20:25.855870 24319 net.cpp:165] Memory required for data: 2257101856
I0112 18:20:25.855877 24319 layer_factory.hpp:77] Creating layer deconv6_1
I0112 18:20:25.855911 24319 net.cpp:100] Creating Layer deconv6_1
I0112 18:20:25.855922 24319 net.cpp:434] deconv6_1 <- deconv6_2
I0112 18:20:25.855944 24319 net.cpp:408] deconv6_1 -> deconv6_1
I0112 18:20:25.882316 24319 net.cpp:150] Setting up deconv6_1
I0112 18:20:25.882383 24319 net.cpp:157] Top shape: 8 1024 10 10 (819200)
I0112 18:20:25.882388 24319 net.cpp:165] Memory required for data: 2260378656
I0112 18:20:25.882422 24319 layer_factory.hpp:77] Creating layer deconv6_1_bn
I0112 18:20:25.882472 24319 net.cpp:100] Creating Layer deconv6_1_bn
I0112 18:20:25.882494 24319 net.cpp:434] deconv6_1_bn <- deconv6_1
I0112 18:20:25.882529 24319 net.cpp:395] deconv6_1_bn -> deconv6_1 (in-place)
I0112 18:20:25.882817 24319 net.cpp:150] Setting up deconv6_1_bn
I0112 18:20:25.882830 24319 net.cpp:157] Top shape: 8 1024 10 10 (819200)
I0112 18:20:25.882835 24319 net.cpp:165] Memory required for data: 2263655456
I0112 18:20:25.882864 24319 layer_factory.hpp:77] Creating layer deconv6_1_scale
I0112 18:20:25.882892 24319 net.cpp:100] Creating Layer deconv6_1_scale
I0112 18:20:25.882902 24319 net.cpp:434] deconv6_1_scale <- deconv6_1
I0112 18:20:25.882921 24319 net.cpp:395] deconv6_1_scale -> deconv6_1 (in-place)
I0112 18:20:25.883009 24319 layer_factory.hpp:77] Creating layer deconv6_1_scale
I0112 18:20:25.883193 24319 net.cpp:150] Setting up deconv6_1_scale
I0112 18:20:25.883208 24319 net.cpp:157] Top shape: 8 1024 10 10 (819200)
I0112 18:20:25.883213 24319 net.cpp:165] Memory required for data: 2266932256
I0112 18:20:25.883230 24319 layer_factory.hpp:77] Creating layer deconv6_1_relu
I0112 18:20:25.883255 24319 net.cpp:100] Creating Layer deconv6_1_relu
I0112 18:20:25.883265 24319 net.cpp:434] deconv6_1_relu <- deconv6_1
I0112 18:20:25.883283 24319 net.cpp:395] deconv6_1_relu -> deconv6_1 (in-place)
I0112 18:20:25.883302 24319 net.cpp:150] Setting up deconv6_1_relu
I0112 18:20:25.883312 24319 net.cpp:157] Top shape: 8 1024 10 10 (819200)
I0112 18:20:25.883317 24319 net.cpp:165] Memory required for data: 2270209056
I0112 18:20:25.883324 24319 layer_factory.hpp:77] Creating layer fc7_crop
I0112 18:20:25.883344 24319 net.cpp:100] Creating Layer fc7_crop
I0112 18:20:25.883355 24319 net.cpp:434] fc7_crop <- P5_P5_relu_0_split_1
I0112 18:20:25.883373 24319 net.cpp:434] fc7_crop <- cls_specific_bbox_cls_specific_bbox_0_split_1
I0112 18:20:25.883388 24319 net.cpp:408] fc7_crop -> fc7_crop
I0112 18:20:25.883467 24319 net.cpp:150] Setting up fc7_crop
I0112 18:20:25.883482 24319 net.cpp:157] Top shape: 8 256 10 10 (204800)
I0112 18:20:25.883487 24319 net.cpp:165] Memory required for data: 2271028256
I0112 18:20:25.883496 24319 layer_factory.hpp:77] Creating layer defc7_concat
I0112 18:20:25.883515 24319 net.cpp:100] Creating Layer defc7_concat
I0112 18:20:25.883525 24319 net.cpp:434] defc7_concat <- fc7_crop
I0112 18:20:25.883566 24319 net.cpp:434] defc7_concat <- deconv6_1
I0112 18:20:25.883586 24319 net.cpp:408] defc7_concat -> defc7_concat
I0112 18:20:25.883639 24319 net.cpp:150] Setting up defc7_concat
I0112 18:20:25.883653 24319 net.cpp:157] Top shape: 8 1280 10 10 (1024000)
I0112 18:20:25.883658 24319 net.cpp:165] Memory required for data: 2275124256
I0112 18:20:25.883666 24319 layer_factory.hpp:77] Creating layer defc7
I0112 18:20:25.883699 24319 net.cpp:100] Creating Layer defc7
I0112 18:20:25.883711 24319 net.cpp:434] defc7 <- defc7_concat
I0112 18:20:25.883736 24319 net.cpp:408] defc7 -> defc7
I0112 18:20:25.962674 24319 net.cpp:150] Setting up defc7
I0112 18:20:25.962743 24319 net.cpp:157] Top shape: 8 1024 10 10 (819200)
I0112 18:20:25.962749 24319 net.cpp:165] Memory required for data: 2278401056
I0112 18:20:25.962790 24319 layer_factory.hpp:77] Creating layer derelu7
I0112 18:20:25.962838 24319 net.cpp:100] Creating Layer derelu7
I0112 18:20:25.962862 24319 net.cpp:434] derelu7 <- defc7
I0112 18:20:25.962899 24319 net.cpp:395] derelu7 -> defc7 (in-place)
I0112 18:20:25.962934 24319 net.cpp:150] Setting up derelu7
I0112 18:20:25.962944 24319 net.cpp:157] Top shape: 8 1024 10 10 (819200)
I0112 18:20:25.962949 24319 net.cpp:165] Memory required for data: 2281677856
I0112 18:20:25.962957 24319 layer_factory.hpp:77] Creating layer defc6
I0112 18:20:25.962991 24319 net.cpp:100] Creating Layer defc6
I0112 18:20:25.963002 24319 net.cpp:434] defc6 <- defc7
I0112 18:20:25.963028 24319 net.cpp:408] defc6 -> defc6
I0112 18:20:26.244202 24319 net.cpp:150] Setting up defc6
I0112 18:20:26.244271 24319 net.cpp:157] Top shape: 8 512 10 10 (409600)
I0112 18:20:26.244278 24319 net.cpp:165] Memory required for data: 2283316256
I0112 18:20:26.244320 24319 layer_factory.hpp:77] Creating layer derelu6
I0112 18:20:26.244372 24319 net.cpp:100] Creating Layer derelu6
I0112 18:20:26.244400 24319 net.cpp:434] derelu6 <- defc6
I0112 18:20:26.244441 24319 net.cpp:395] derelu6 -> defc6 (in-place)
I0112 18:20:26.244482 24319 net.cpp:150] Setting up derelu6
I0112 18:20:26.244494 24319 net.cpp:157] Top shape: 8 512 10 10 (409600)
I0112 18:20:26.244504 24319 net.cpp:165] Memory required for data: 2284954656
I0112 18:20:26.244514 24319 layer_factory.hpp:77] Creating layer unpool5
I0112 18:20:26.244554 24319 net.cpp:100] Creating Layer unpool5
I0112 18:20:26.244566 24319 net.cpp:434] unpool5 <- defc6
I0112 18:20:26.244587 24319 net.cpp:434] unpool5 <- pool5_mask
I0112 18:20:26.244611 24319 net.cpp:408] unpool5 -> unpool5
I0112 18:20:26.244681 24319 net.cpp:150] Setting up unpool5
I0112 18:20:26.244699 24319 net.cpp:157] Top shape: 8 512 20 20 (1638400)
I0112 18:20:26.244705 24319 net.cpp:165] Memory required for data: 2291508256
I0112 18:20:26.244716 24319 layer_factory.hpp:77] Creating layer conv5_3_crop
I0112 18:20:26.244741 24319 net.cpp:100] Creating Layer conv5_3_crop
I0112 18:20:26.244755 24319 net.cpp:434] conv5_3_crop <- P4_P4_relu_0_split_1
I0112 18:20:26.244776 24319 net.cpp:434] conv5_3_crop <- cls_specific_bbox_cls_specific_bbox_0_split_2
I0112 18:20:26.244797 24319 net.cpp:408] conv5_3_crop -> conv5_3_crop
I0112 18:20:26.244871 24319 net.cpp:150] Setting up conv5_3_crop
I0112 18:20:26.244889 24319 net.cpp:157] Top shape: 8 256 20 20 (819200)
I0112 18:20:26.244896 24319 net.cpp:165] Memory required for data: 2294785056
I0112 18:20:26.244906 24319 layer_factory.hpp:77] Creating layer deconv5_3_concat
I0112 18:20:26.244927 24319 net.cpp:100] Creating Layer deconv5_3_concat
I0112 18:20:26.244940 24319 net.cpp:434] deconv5_3_concat <- conv5_3_crop
I0112 18:20:26.244959 24319 net.cpp:434] deconv5_3_concat <- unpool5
I0112 18:20:26.244981 24319 net.cpp:408] deconv5_3_concat -> deconv5_3_concat
I0112 18:20:26.245038 24319 net.cpp:150] Setting up deconv5_3_concat
I0112 18:20:26.245054 24319 net.cpp:157] Top shape: 8 768 20 20 (2457600)
I0112 18:20:26.245060 24319 net.cpp:165] Memory required for data: 2304615456
I0112 18:20:26.245071 24319 layer_factory.hpp:77] Creating layer deconv5_3
I0112 18:20:26.245110 24319 net.cpp:100] Creating Layer deconv5_3
I0112 18:20:26.245151 24319 net.cpp:434] deconv5_3 <- deconv5_3_concat
I0112 18:20:26.245183 24319 net.cpp:408] deconv5_3 -> deconv5_3
I0112 18:20:26.454488 24319 net.cpp:150] Setting up deconv5_3
I0112 18:20:26.454547 24319 net.cpp:157] Top shape: 8 512 20 20 (1638400)
I0112 18:20:26.454555 24319 net.cpp:165] Memory required for data: 2311169056
I0112 18:20:26.454599 24319 layer_factory.hpp:77] Creating layer derelu5_3
I0112 18:20:26.454650 24319 net.cpp:100] Creating Layer derelu5_3
I0112 18:20:26.454677 24319 net.cpp:434] derelu5_3 <- deconv5_3
I0112 18:20:26.454716 24319 net.cpp:395] derelu5_3 -> deconv5_3 (in-place)
I0112 18:20:26.454754 24319 net.cpp:150] Setting up derelu5_3
I0112 18:20:26.454767 24319 net.cpp:157] Top shape: 8 512 20 20 (1638400)
I0112 18:20:26.454777 24319 net.cpp:165] Memory required for data: 2317722656
I0112 18:20:26.454787 24319 layer_factory.hpp:77] Creating layer deconv5_2
I0112 18:20:26.454830 24319 net.cpp:100] Creating Layer deconv5_2
I0112 18:20:26.454844 24319 net.cpp:434] deconv5_2 <- deconv5_3
I0112 18:20:26.454875 24319 net.cpp:408] deconv5_2 -> deconv5_2
I0112 18:20:26.590463 24327 bbox_seg_data_layer.cpp:339] Prefetch batch: 1787 ms.
I0112 18:20:26.590510 24327 bbox_seg_data_layer.cpp:340]      Read time: 1.085 ms.
I0112 18:20:26.590517 24327 bbox_seg_data_layer.cpp:341] Transform time: 1779.5 ms.
I0112 18:20:26.594930 24319 net.cpp:150] Setting up deconv5_2
I0112 18:20:26.594970 24319 net.cpp:157] Top shape: 8 512 20 20 (1638400)
I0112 18:20:26.594981 24319 net.cpp:165] Memory required for data: 2324276256
I0112 18:20:26.595026 24319 layer_factory.hpp:77] Creating layer derelu5_2
I0112 18:20:26.595067 24319 net.cpp:100] Creating Layer derelu5_2
I0112 18:20:26.595090 24319 net.cpp:434] derelu5_2 <- deconv5_2
I0112 18:20:26.595126 24319 net.cpp:395] derelu5_2 -> deconv5_2 (in-place)
I0112 18:20:26.595162 24319 net.cpp:150] Setting up derelu5_2
I0112 18:20:26.595175 24319 net.cpp:157] Top shape: 8 512 20 20 (1638400)
I0112 18:20:26.595182 24319 net.cpp:165] Memory required for data: 2330829856
I0112 18:20:26.595193 24319 layer_factory.hpp:77] Creating layer deconv5_1
I0112 18:20:26.595233 24319 net.cpp:100] Creating Layer deconv5_1
I0112 18:20:26.595247 24319 net.cpp:434] deconv5_1 <- deconv5_2
I0112 18:20:26.595279 24319 net.cpp:408] deconv5_1 -> deconv5_1
I0112 18:20:26.736125 24319 net.cpp:150] Setting up deconv5_1
I0112 18:20:26.736179 24319 net.cpp:157] Top shape: 8 512 20 20 (1638400)
I0112 18:20:26.736187 24319 net.cpp:165] Memory required for data: 2337383456
I0112 18:20:26.736225 24319 layer_factory.hpp:77] Creating layer derelu5_1
I0112 18:20:26.736271 24319 net.cpp:100] Creating Layer derelu5_1
I0112 18:20:26.736297 24319 net.cpp:434] derelu5_1 <- deconv5_1
I0112 18:20:26.736333 24319 net.cpp:395] derelu5_1 -> deconv5_1 (in-place)
I0112 18:20:26.736371 24319 net.cpp:150] Setting up derelu5_1
I0112 18:20:26.736384 24319 net.cpp:157] Top shape: 8 512 20 20 (1638400)
I0112 18:20:26.736394 24319 net.cpp:165] Memory required for data: 2343937056
I0112 18:20:26.736404 24319 layer_factory.hpp:77] Creating layer unpool4
I0112 18:20:26.736434 24319 net.cpp:100] Creating Layer unpool4
I0112 18:20:26.736446 24319 net.cpp:434] unpool4 <- deconv5_1
I0112 18:20:26.736467 24319 net.cpp:434] unpool4 <- pool4_mask
I0112 18:20:26.736493 24319 net.cpp:408] unpool4 -> unpool4
I0112 18:20:26.736558 24319 net.cpp:150] Setting up unpool4
I0112 18:20:26.736577 24319 net.cpp:157] Top shape: 8 512 40 40 (6553600)
I0112 18:20:26.736583 24319 net.cpp:165] Memory required for data: 2370151456
I0112 18:20:26.736593 24319 layer_factory.hpp:77] Creating layer conv4_3_crop
I0112 18:20:26.736618 24319 net.cpp:100] Creating Layer conv4_3_crop
I0112 18:20:26.736630 24319 net.cpp:434] conv4_3_crop <- P3
I0112 18:20:26.736651 24319 net.cpp:434] conv4_3_crop <- cls_specific_bbox_cls_specific_bbox_0_split_3
I0112 18:20:26.736675 24319 net.cpp:408] conv4_3_crop -> conv4_3_crop
I0112 18:20:26.736748 24319 net.cpp:150] Setting up conv4_3_crop
I0112 18:20:26.736765 24319 net.cpp:157] Top shape: 8 256 40 40 (3276800)
I0112 18:20:26.736799 24319 net.cpp:165] Memory required for data: 2383258656
I0112 18:20:26.736814 24319 layer_factory.hpp:77] Creating layer deconv4_3_concat
I0112 18:20:26.736836 24319 net.cpp:100] Creating Layer deconv4_3_concat
I0112 18:20:26.736848 24319 net.cpp:434] deconv4_3_concat <- conv4_3_crop
I0112 18:20:26.736868 24319 net.cpp:434] deconv4_3_concat <- unpool4
I0112 18:20:26.736887 24319 net.cpp:408] deconv4_3_concat -> deconv4_3_concat
I0112 18:20:26.736943 24319 net.cpp:150] Setting up deconv4_3_concat
I0112 18:20:26.736960 24319 net.cpp:157] Top shape: 8 768 40 40 (9830400)
I0112 18:20:26.736968 24319 net.cpp:165] Memory required for data: 2422580256
I0112 18:20:26.736979 24319 layer_factory.hpp:77] Creating layer deconv4_3
I0112 18:20:26.737015 24319 net.cpp:100] Creating Layer deconv4_3
I0112 18:20:26.737028 24319 net.cpp:434] deconv4_3 <- deconv4_3_concat
I0112 18:20:26.737059 24319 net.cpp:408] deconv4_3 -> deconv4_3
I0112 18:20:26.952541 24319 net.cpp:150] Setting up deconv4_3
I0112 18:20:26.952647 24319 net.cpp:157] Top shape: 8 512 40 40 (6553600)
I0112 18:20:26.952667 24319 net.cpp:165] Memory required for data: 2448794656
I0112 18:20:26.952745 24319 layer_factory.hpp:77] Creating layer derelu4_3
I0112 18:20:26.952824 24319 net.cpp:100] Creating Layer derelu4_3
I0112 18:20:26.952898 24319 net.cpp:434] derelu4_3 <- deconv4_3
I0112 18:20:26.952941 24319 net.cpp:395] derelu4_3 -> deconv4_3 (in-place)
I0112 18:20:26.952982 24319 net.cpp:150] Setting up derelu4_3
I0112 18:20:26.952994 24319 net.cpp:157] Top shape: 8 512 40 40 (6553600)
I0112 18:20:26.953002 24319 net.cpp:165] Memory required for data: 2475009056
I0112 18:20:26.953014 24319 layer_factory.hpp:77] Creating layer deconv4_2
I0112 18:20:26.953056 24319 net.cpp:100] Creating Layer deconv4_2
I0112 18:20:26.953070 24319 net.cpp:434] deconv4_2 <- deconv4_3
I0112 18:20:26.953102 24319 net.cpp:408] deconv4_2 -> deconv4_2
I0112 18:20:27.095399 24319 net.cpp:150] Setting up deconv4_2
I0112 18:20:27.095466 24319 net.cpp:157] Top shape: 8 512 40 40 (6553600)
I0112 18:20:27.095474 24319 net.cpp:165] Memory required for data: 2501223456
I0112 18:20:27.095516 24319 layer_factory.hpp:77] Creating layer derelu4_2
I0112 18:20:27.095562 24319 net.cpp:100] Creating Layer derelu4_2
I0112 18:20:27.095587 24319 net.cpp:434] derelu4_2 <- deconv4_2
I0112 18:20:27.095629 24319 net.cpp:395] derelu4_2 -> deconv4_2 (in-place)
I0112 18:20:27.095667 24319 net.cpp:150] Setting up derelu4_2
I0112 18:20:27.095680 24319 net.cpp:157] Top shape: 8 512 40 40 (6553600)
I0112 18:20:27.095690 24319 net.cpp:165] Memory required for data: 2527437856
I0112 18:20:27.095701 24319 layer_factory.hpp:77] Creating layer deconv4_1
I0112 18:20:27.095743 24319 net.cpp:100] Creating Layer deconv4_1
I0112 18:20:27.095757 24319 net.cpp:434] deconv4_1 <- deconv4_2
I0112 18:20:27.095787 24319 net.cpp:408] deconv4_1 -> deconv4_1
I0112 18:20:27.165671 24319 net.cpp:150] Setting up deconv4_1
I0112 18:20:27.165720 24319 net.cpp:157] Top shape: 8 256 40 40 (3276800)
I0112 18:20:27.165729 24319 net.cpp:165] Memory required for data: 2540545056
I0112 18:20:27.165766 24319 layer_factory.hpp:77] Creating layer derelu4_1
I0112 18:20:27.165805 24319 net.cpp:100] Creating Layer derelu4_1
I0112 18:20:27.165827 24319 net.cpp:434] derelu4_1 <- deconv4_1
I0112 18:20:27.165864 24319 net.cpp:395] derelu4_1 -> deconv4_1 (in-place)
I0112 18:20:27.165900 24319 net.cpp:150] Setting up derelu4_1
I0112 18:20:27.165913 24319 net.cpp:157] Top shape: 8 256 40 40 (3276800)
I0112 18:20:27.165925 24319 net.cpp:165] Memory required for data: 2553652256
I0112 18:20:27.165935 24319 layer_factory.hpp:77] Creating layer unpool3
I0112 18:20:27.165967 24319 net.cpp:100] Creating Layer unpool3
I0112 18:20:27.165980 24319 net.cpp:434] unpool3 <- deconv4_1
I0112 18:20:27.166030 24319 net.cpp:434] unpool3 <- pool3_mask
I0112 18:20:27.166066 24319 net.cpp:408] unpool3 -> unpool3
I0112 18:20:27.166133 24319 net.cpp:150] Setting up unpool3
I0112 18:20:27.166152 24319 net.cpp:157] Top shape: 8 256 80 80 (13107200)
I0112 18:20:27.166158 24319 net.cpp:165] Memory required for data: 2606081056
I0112 18:20:27.166198 24319 layer_factory.hpp:77] Creating layer deconv3_3
I0112 18:20:27.166245 24319 net.cpp:100] Creating Layer deconv3_3
I0112 18:20:27.166261 24319 net.cpp:434] deconv3_3 <- unpool3
I0112 18:20:27.166293 24319 net.cpp:408] deconv3_3 -> deconv3_3
I0112 18:20:27.201932 24319 net.cpp:150] Setting up deconv3_3
I0112 18:20:27.201999 24319 net.cpp:157] Top shape: 8 256 80 80 (13107200)
I0112 18:20:27.202008 24319 net.cpp:165] Memory required for data: 2658509856
I0112 18:20:27.202060 24319 layer_factory.hpp:77] Creating layer derelu3_3
I0112 18:20:27.202107 24319 net.cpp:100] Creating Layer derelu3_3
I0112 18:20:27.202132 24319 net.cpp:434] derelu3_3 <- deconv3_3
I0112 18:20:27.202172 24319 net.cpp:395] derelu3_3 -> deconv3_3 (in-place)
I0112 18:20:27.202217 24319 net.cpp:150] Setting up derelu3_3
I0112 18:20:27.202231 24319 net.cpp:157] Top shape: 8 256 80 80 (13107200)
I0112 18:20:27.202239 24319 net.cpp:165] Memory required for data: 2710938656
I0112 18:20:27.202252 24319 layer_factory.hpp:77] Creating layer deconv3_2
I0112 18:20:27.202292 24319 net.cpp:100] Creating Layer deconv3_2
I0112 18:20:27.202307 24319 net.cpp:434] deconv3_2 <- deconv3_3
I0112 18:20:27.202339 24319 net.cpp:408] deconv3_2 -> deconv3_2
I0112 18:20:27.238243 24319 net.cpp:150] Setting up deconv3_2
I0112 18:20:27.238307 24319 net.cpp:157] Top shape: 8 256 80 80 (13107200)
I0112 18:20:27.238314 24319 net.cpp:165] Memory required for data: 2763367456
I0112 18:20:27.238355 24319 layer_factory.hpp:77] Creating layer derelu3_2
I0112 18:20:27.238409 24319 net.cpp:100] Creating Layer derelu3_2
I0112 18:20:27.238435 24319 net.cpp:434] derelu3_2 <- deconv3_2
I0112 18:20:27.238472 24319 net.cpp:395] derelu3_2 -> deconv3_2 (in-place)
I0112 18:20:27.238512 24319 net.cpp:150] Setting up derelu3_2
I0112 18:20:27.238524 24319 net.cpp:157] Top shape: 8 256 80 80 (13107200)
I0112 18:20:27.238533 24319 net.cpp:165] Memory required for data: 2815796256
I0112 18:20:27.238545 24319 layer_factory.hpp:77] Creating layer deconv3_1
I0112 18:20:27.238584 24319 net.cpp:100] Creating Layer deconv3_1
I0112 18:20:27.238597 24319 net.cpp:434] deconv3_1 <- deconv3_2
I0112 18:20:27.238629 24319 net.cpp:408] deconv3_1 -> deconv3_1
I0112 18:20:27.257475 24319 net.cpp:150] Setting up deconv3_1
I0112 18:20:27.257539 24319 net.cpp:157] Top shape: 8 128 80 80 (6553600)
I0112 18:20:27.257545 24319 net.cpp:165] Memory required for data: 2842010656
I0112 18:20:27.257587 24319 layer_factory.hpp:77] Creating layer derelu3_1
I0112 18:20:27.257639 24319 net.cpp:100] Creating Layer derelu3_1
I0112 18:20:27.257663 24319 net.cpp:434] derelu3_1 <- deconv3_1
I0112 18:20:27.257702 24319 net.cpp:395] derelu3_1 -> deconv3_1 (in-place)
I0112 18:20:27.257740 24319 net.cpp:150] Setting up derelu3_1
I0112 18:20:27.257753 24319 net.cpp:157] Top shape: 8 128 80 80 (6553600)
I0112 18:20:27.257762 24319 net.cpp:165] Memory required for data: 2868225056
I0112 18:20:27.257773 24319 layer_factory.hpp:77] Creating layer unpool2
I0112 18:20:27.257808 24319 net.cpp:100] Creating Layer unpool2
I0112 18:20:27.257822 24319 net.cpp:434] unpool2 <- deconv3_1
I0112 18:20:27.257840 24319 net.cpp:434] unpool2 <- pool2_mask
I0112 18:20:27.257866 24319 net.cpp:408] unpool2 -> unpool2
I0112 18:20:27.257937 24319 net.cpp:150] Setting up unpool2
I0112 18:20:27.257956 24319 net.cpp:157] Top shape: 8 128 160 160 (26214400)
I0112 18:20:27.257962 24319 net.cpp:165] Memory required for data: 2973082656
I0112 18:20:27.257972 24319 layer_factory.hpp:77] Creating layer deconv2_2
I0112 18:20:27.258009 24319 net.cpp:100] Creating Layer deconv2_2
I0112 18:20:27.258023 24319 net.cpp:434] deconv2_2 <- unpool2
I0112 18:20:27.258054 24319 net.cpp:408] deconv2_2 -> deconv2_2
I0112 18:20:27.267103 24319 net.cpp:150] Setting up deconv2_2
I0112 18:20:27.267165 24319 net.cpp:157] Top shape: 8 128 160 160 (26214400)
I0112 18:20:27.267172 24319 net.cpp:165] Memory required for data: 3077940256
I0112 18:20:27.267232 24319 layer_factory.hpp:77] Creating layer derelu2_2
I0112 18:20:27.267318 24319 net.cpp:100] Creating Layer derelu2_2
I0112 18:20:27.267343 24319 net.cpp:434] derelu2_2 <- deconv2_2
I0112 18:20:27.267379 24319 net.cpp:395] derelu2_2 -> deconv2_2 (in-place)
I0112 18:20:27.267417 24319 net.cpp:150] Setting up derelu2_2
I0112 18:20:27.267431 24319 net.cpp:157] Top shape: 8 128 160 160 (26214400)
I0112 18:20:27.267437 24319 net.cpp:165] Memory required for data: 3182797856
I0112 18:20:27.267448 24319 layer_factory.hpp:77] Creating layer deconv2_1
I0112 18:20:27.267488 24319 net.cpp:100] Creating Layer deconv2_1
I0112 18:20:27.267503 24319 net.cpp:434] deconv2_1 <- deconv2_2
I0112 18:20:27.267537 24319 net.cpp:408] deconv2_1 -> deconv2_1
I0112 18:20:27.272263 24319 net.cpp:150] Setting up deconv2_1
I0112 18:20:27.272291 24319 net.cpp:157] Top shape: 8 64 160 160 (13107200)
I0112 18:20:27.272297 24319 net.cpp:165] Memory required for data: 3235226656
I0112 18:20:27.272325 24319 layer_factory.hpp:77] Creating layer derelu2_1
I0112 18:20:27.272351 24319 net.cpp:100] Creating Layer derelu2_1
I0112 18:20:27.272367 24319 net.cpp:434] derelu2_1 <- deconv2_1
I0112 18:20:27.272393 24319 net.cpp:395] derelu2_1 -> deconv2_1 (in-place)
I0112 18:20:27.272419 24319 net.cpp:150] Setting up derelu2_1
I0112 18:20:27.272431 24319 net.cpp:157] Top shape: 8 64 160 160 (13107200)
I0112 18:20:27.272439 24319 net.cpp:165] Memory required for data: 3287655456
I0112 18:20:27.272451 24319 layer_factory.hpp:77] Creating layer unpool1
I0112 18:20:27.272486 24319 net.cpp:100] Creating Layer unpool1
I0112 18:20:27.272500 24319 net.cpp:434] unpool1 <- deconv2_1
I0112 18:20:27.272518 24319 net.cpp:434] unpool1 <- pool1_mask
I0112 18:20:27.272542 24319 net.cpp:408] unpool1 -> unpool1
I0112 18:20:27.272608 24319 net.cpp:150] Setting up unpool1
I0112 18:20:27.272625 24319 net.cpp:157] Top shape: 8 64 320 320 (52428800)
I0112 18:20:27.272632 24319 net.cpp:165] Memory required for data: 3497370656
I0112 18:20:27.272645 24319 layer_factory.hpp:77] Creating layer deconv1_2
I0112 18:20:27.272676 24319 net.cpp:100] Creating Layer deconv1_2
I0112 18:20:27.272691 24319 net.cpp:434] deconv1_2 <- unpool1
I0112 18:20:27.272717 24319 net.cpp:408] deconv1_2 -> deconv1_2
I0112 18:20:27.275488 24319 net.cpp:150] Setting up deconv1_2
I0112 18:20:27.275511 24319 net.cpp:157] Top shape: 8 64 320 320 (52428800)
I0112 18:20:27.275517 24319 net.cpp:165] Memory required for data: 3707085856
I0112 18:20:27.275540 24319 layer_factory.hpp:77] Creating layer derelu1_2
I0112 18:20:27.275585 24319 net.cpp:100] Creating Layer derelu1_2
I0112 18:20:27.275600 24319 net.cpp:434] derelu1_2 <- deconv1_2
I0112 18:20:27.275626 24319 net.cpp:395] derelu1_2 -> deconv1_2 (in-place)
I0112 18:20:27.275651 24319 net.cpp:150] Setting up derelu1_2
I0112 18:20:27.275665 24319 net.cpp:157] Top shape: 8 64 320 320 (52428800)
I0112 18:20:27.275671 24319 net.cpp:165] Memory required for data: 3916801056
I0112 18:20:27.275686 24319 layer_factory.hpp:77] Creating layer deconv1_1
I0112 18:20:27.275712 24319 net.cpp:100] Creating Layer deconv1_1
I0112 18:20:27.275724 24319 net.cpp:434] deconv1_1 <- deconv1_2
I0112 18:20:27.275754 24319 net.cpp:408] deconv1_1 -> deconv1_1
I0112 18:20:27.278501 24319 net.cpp:150] Setting up deconv1_1
I0112 18:20:27.278523 24319 net.cpp:157] Top shape: 8 64 320 320 (52428800)
I0112 18:20:27.278530 24319 net.cpp:165] Memory required for data: 4126516256
I0112 18:20:27.278554 24319 layer_factory.hpp:77] Creating layer derelu1_1
I0112 18:20:27.278575 24319 net.cpp:100] Creating Layer derelu1_1
I0112 18:20:27.278589 24319 net.cpp:434] derelu1_1 <- deconv1_1
I0112 18:20:27.278611 24319 net.cpp:395] derelu1_1 -> deconv1_1 (in-place)
I0112 18:20:27.278636 24319 net.cpp:150] Setting up derelu1_1
I0112 18:20:27.278648 24319 net.cpp:157] Top shape: 8 64 320 320 (52428800)
I0112 18:20:27.278656 24319 net.cpp:165] Memory required for data: 4336231456
I0112 18:20:27.278666 24319 layer_factory.hpp:77] Creating layer seg_score
I0112 18:20:27.278694 24319 net.cpp:100] Creating Layer seg_score
I0112 18:20:27.278707 24319 net.cpp:434] seg_score <- deconv1_1
I0112 18:20:27.278767 24319 net.cpp:408] seg_score -> seg_score
I0112 18:20:27.279496 24319 net.cpp:150] Setting up seg_score
I0112 18:20:27.279517 24319 net.cpp:157] Top shape: 8 2 320 320 (1638400)
I0112 18:20:27.279525 24319 net.cpp:165] Memory required for data: 4342785056
I0112 18:20:27.279546 24319 layer_factory.hpp:77] Creating layer seg_loss
I0112 18:20:27.279585 24319 net.cpp:100] Creating Layer seg_loss
I0112 18:20:27.279599 24319 net.cpp:434] seg_loss <- seg_score
I0112 18:20:27.279621 24319 net.cpp:434] seg_loss <- binary_mask
I0112 18:20:27.279649 24319 net.cpp:408] seg_loss -> seg_loss
…
